CQL-DQN/trained_models/CQL-DQNCQL-DQN0.pth (torch, 272215 bytes, 6 tensors)

head_1.weight f4 [256, 4]
0.34294152 -0.14370036 -0.24304728 0.15009472 -0.4169966 0.33418122 -0.17677301 0.21188833
0.07196652 -0.023176989 0.12508994 -0.006239073 0.15194435 -0.20145154 -0.044933513 -0.03734138
0.09575159 0.020157067 0.4171892 0.13454643 -0.039605558 -0.2982993 -0.120647125 -0.19076236
-0.31910947 0.14211322 0.64231545 0.21246485 -0.6543963 0.43650973 0.44314423 0.38752013
0.3157048 -0.441914 -0.4754489 -0.24937306 0.32090327 -0.119845495 0.36524242 -0.19364873
0.46785992 -0.21563867 0.36168218 0.011908798 -0.26848665 0.2459092 -0.26591828 0.1599631
0.06246451 -0.1200908 -0.89789987 -0.2527376 0.29295978 -0.05706599 0.55041647 0.33567202
-0.028668009 -0.2815859 0.46831244 0.12645507 -0.25818256 0.39719927 0.27098277 0.3642317
-0.24207975 -0.058372658 -0.026054872 0.051548265 -0.37302327 -0.32393974 0.2522257 -0.140898
0.24423671 0.028504968 0.16417241 0.10994434 0.15814678 0.25314248 -0.46777976 0.24597757
-0.31808713 -0.31844825 0.0019518653 -0.13268659 0.365483 -0.2495945 -0.5395467 0.32961383
-0.11621054 0.23408982 0.28105196 -0.324116 -0.01681401 0.010034278 -0.1521728 -0.111887835
0.17076372 0.041472055 -0.24584693 -0.103260994 0.37219885 -0.057399157 0.36244568 0.1732101
-0.4052731 -0.3781535 0.7010998 0.0006880711 0.2681519 0.16602655 0.28791457 0.3403897
0.5321402 -0.25574824 -0.050061736 0.29949015 0.31042224 0.23892665 -0.31174195 -0.2827157
-0.37956017 0.025033792 0.58123255 -0.28034213 0.4413537 -0.27277878 -0.67450863 -0.10860688
0.19339067 0.40529117 -0.17259847 0.17775702 -0.032207645 0.37412876 0.8121269 0.36683005
0.37076473 0.09780889 -0.50318134 -0.40889683 -0.22725426 -0.027623942 -0.33500448 0.15644743
0.21060173 -0.053133905 0.06675314 0.09434914 0.37511262 0.36538154 -0.23025624 0.47316343
0.11348178 -0.03326747 -0.70207447 -0.33118147 -0.25606033 -0.17767109 0.32601818 -0.21173866
-0.6357198 0.24266163 0.6937765 0.35954922 -0.2099267 0.054221515 -0.31868455 -0.074728176
-0.37774873 -0.10145483 -0.13445877 0.10322492 -0.05317185 0.18315522 0.7031275 0.4478867
0.35333994 0.09853972 -0.2859239 0.32635725 -0.10774652 -0.07974527 -0.453805 -0.048861656
-0.35782677 0.4352234 -0.3232486 -0.35947198 -0.037928857 -0.26256883 0.18349798 -0.19503602
-0.23098242 -0.014751088 0.3558801 -0.31534436 0.11780622 0.2670275 0.66352206 -0.28363025
0.12109494 -0.36971343 0.4268751 -0.19395316 0.30117637 0.014885724 -0.038941324 -0.015953898
0.028704561 0.19368336 0.052441787 0.17440589 -0.4521287 0.4014554 0.41256812 0.37959394
0.45887828 -0.27703032 -0.28649586 0.3588919 -0.45072627 0.4098794 -0.25418404 -0.29653364
0.328692 -0.29731044 -0.21584527 0.30629322 0.35359147 0.3401576 -0.09767779 -0.26328182
0.46890748 -0.08530706 -0.20852707 0.10529324 -0.39571288 0.28559288 0.43538642 -0.3477423
-0.41379762 -0.02988079 0.20033374 -0.02342983 -0.33136186 -0.031145932 -0.33649486 -0.30537114
-0.3989498 0.3709683 0.4644735 -0.14348325 -0.009673372 0.15505667 0.044913575 -0.19335146
00000000: 0896 af3e 3026 13be 63e1 78be 6eb2 193e
00000010: 9480 d5be cd19 ab3e fc03 35be 41f9 583e
00000020: 2f63 933d abdd bdbc 9417 003e 2371 ccbb
00000030: 4d97 1b3e 5049 4ebe 340c 38bd 46f3 18bd
00000040: 6919 c43d 6f20 a53c d399 d53e 8ac6 093e
00000050: 7039 22bd b0ba 98be d715 f7bd 3557 43be
00000060: 5162 a3be 2186 113e c96e 243f 6390 593e
00000070: 8486 27bf 347e df3e cde3 e23e 0a69 c63e
00000080: 0fa4 a13e 8d42 e2be 0a6e f3be a75b 7fbe
00000090: 6f4d a43e 8e71 f5bd 0e01 bb3e da4b 46be
000000a0: 568b ef3e 62d0 5cbe 682e b93e 1e1d 433c
000000b0: 1577 89be 9fcf 7b3e 7126 88be 5ecd 233e
000000c0: c9da 7f3d 2af2 f5bd c4dc 65bf d366 81be
000000d0: d3fe 953e 07be 69bd 18e8 0c3f 34dd ab3e
000000e0: 2cd9 eabc 072c 90be a6c6 ef3e 707d 013e
000000f0: 8130 84be b45d cb3e 41be 8a3e 947c ba3e
00000100: c1e3 77be 2b18 6fbd 0771 d5bc 4624 533d
00000110: e8fc bebe 6edb a5be ba23 813e 9147 10be
00000120: 3019 7a3e 4083 e93c d01c 283e 802a e13d
00000130: 3bf1 213e e49b 813e d480 efbe 8be1 7b3e
00000140: 51dc a2be a60b a3be bbd5 ff3a fede 07be
00000150: 9620 bb3e b395 7fbe bc1f 0abf 25c3 a83e
00000160: cbff edbd 3eb5 6f3e 0be6 8f3e 88f2 a5be
00000170: 89bd 89bc d066 243c 30d3 1bbe 7325 e5bd
00000180: afdc 2e3e 9ade 293d 4cbf 7bbe 807a d3bd
00000190: d990 be3e 611b 6bbd 7b92 b93e fd5d 313e
000001a0: f57f cfbe 569d c1be 477b 333f ab5f 343a
000001b0: 354b 893e dd02 2a3e 8a69 933e 8f47 ae3e
000001c0: 573a 083f 6ff1 82be 890d 4dbd c656 993e
000001d0: aaef 9e3e 30a9 743e a49c 9fbe 1dc0 90be
000001e0: b655 c2be ab13 cd3c a8cb 143f 0189 8fbe
000001f0: 1df9 e13e a9a9 8bbe 99ac 2cbf 496d debd
00000200: 3408 463e 5382 cf3e a7bd 30be f005 363e
00000210: 2aec 03bd ce8d bf3e 8ce7 4f3f 26d1 bb3e
00000220: e0d4 bd3e 0750 c83d 7ed0 00bf ed5a d1be
00000230: 57b5 68be 9b4b e2bc b585 abbe c133 203e
00000240: fba7 573e f0a2 59bd dfb5 883d 1f3a c13d
00000250: c30e c03e 4a13 bb3e 4bc8 6bbe 7a42 f23e
00000260: 2369 e83d 7843 08bd 27bb 33bf 9e90 a9be
00000270: 571a 83be 69ef 35be dbeb a63e 05d2 58be
00000280: 88be 22bf 4a7c 783e 569b 313f d616 b83e
00000290: 06f7 56be 6117 5e3d 9f2a a3be 160b 99bd
000002a0: 4868 c1be 8dc7 cfbd 8faf 09be 9667 d33d
000002b0: baca 59bd 0b8d 3b3e 2a00 343f 6851 e53e
000002c0: f9e8 b43e 31cf c93d 9e64 92be 4c18 a73e
000002d0: 35aa dcbd 7d51 a3bd 2159 e8be 2923 48bd
000002e0: 1235 b7be 9ad5 de3e d780 a5be b60c b8be
000002f0: 4a5b 1bbd 6c6f 86be e5e6 3b3e 86b7 47be
00000300: a886 6cbe 8cae 71bc eb35 b63e d174 a1be
00000310: 6344 f13d d4b7 883e 95dc 293f fc37 91be
00000320: a000 f83d 144b bdbe 608f da3e a89b 46be
00000330: ca33 9a3e 40e3 733c f080 1fbd c0b1 82bc
00000340: d425 eb3c ee54 463e 33cd 563d 7597 323e
00000350: 6a7d e7be 908b cd3e 213c d33e 235a c23e
00000360: 18f2 ea3e ebd6 8dbe 96af 92be aec0 b73e
00000370: 98c5 e6be b6db d13e 6924 82be 42d3 97be
00000380: 514a a83e 1339 98be 8b06 5dbe 77d2 9c3e
00000390: f109 b53e 2329 ae3e 4b0b c8bd e0cc 86be
000003a0: a414 f03e 78b5 aebd 1f88 55be fba3 d73d
000003b0: e19a cabe 3b39 923e f8ea de3e 470b b2be
000003c0: 48dd d3be 8fc8 f4bc 4a24 4d3e eaef bfbc
000003d0: 43a8 a9be c125 ffbc 0e49 acbe 9b59 9cbe
000003e0: 2643 ccbe 8fef bd3e 78cf ed3e 46ed 12be
000003f0: 107d 1ebc 2dc7 1e3e 4cf7 373d edfd 45be

head_1.bias f4 [256]
0.030720048 -0.004943948 0.0815711 -0.2606634 -0.5098358 -0.03649041 -0.24428183 -0.26681212
0.37690634 0.09257864 0.22685432 -0.15051046 -0.34010488 0.03606783 -0.35489902 -0.0004968633
-0.41465116 0.37730443 -0.34060693 0.4488859 0.315257 0.3917679 0.2579411 0.034743663
-0.07037637 -0.04251007 -0.20648679 -0.5143035 0.4690767 -0.037817232 0.26276487 -0.008689568
0.1359505 -0.2798606 -0.38458416 0.397358 0.16867717 0.24533464 -0.45635572 0.002244652
-0.3738694 -0.091392584 -0.099164896 -0.37961778 -0.5859912 -0.039701648 0.45947728 0.45912114
-0.34780228 -0.12411381 -0.4181217 -0.39047688 -0.18189973 0.503707 -0.19928505 0.011215006
0.46619764 -0.067533076 0.41601157 0.328794 0.47740513 0.09794971 -0.4499551 -0.48347047
-0.30172053 0.41836312 0.28925237 0.080001414 -0.40720025 -0.3947845 0.40626875 -0.14802533
-0.561594 -0.15576136 -0.14207616 -0.011347606 0.20454928 0.16050388 -0.44464087 -0.008949255
-0.21535158 0.34120104 0.26126027 0.23954046 0.46967274 0.177096 -0.5140905 0.020344682
-0.39381817 0.014705371 -0.040670726 0.5129554 -0.38940743 -0.517966 -0.13630213 0.048360635
0.36320972 0.42701113 0.3971903 0.15487005 -0.2242612 -0.17370154 -0.34632275 0.07420151
-0.38027984 0.1886178 0.31307486 0.44182685 -0.51512253 0.39483517 -0.25616026 -0.063622475
0.47573942 0.28183725 -0.25889146 0.25159597 -0.5201266 0.3642364 0.49561793 -0.0821468
0.07494594 -0.20389795 -0.37528607 -0.2928793 -0.10085883 -0.4864856 -0.35891122 -0.01005365
-0.4068216 -0.33819795 -0.029999083 -0.28268072 0.4170387 -0.20707525 -0.31095666 -0.15713532
-0.4739667 0.27123046 0.38732618 -0.27084184 -0.19702616 0.4879854 -0.36169708 0.13109559
-0.40738255 -0.54724187 -0.07612048 -0.30555895 0.28622732 -0.20184337 -0.03759539 -0.29746416
0.21340825 0.4821332 -0.17395678 -0.28112113 -0.5234584 0.49581513 0.22216114 0.19576159
0.0418094 0.24982987 0.1694006 0.24913378 0.3234367 0.05745727 0.40315834 0.28983012
-0.10395987 -0.3023009 0.026441429 0.40223294 0.3253817 -0.23457895 -0.13810514 0.14411782
0.18741855 0.46353838 0.2547378 0.110082775 0.13367984 -0.54345167 -0.22885503 0.0046059713
-0.34783125 -0.45436564 0.36196834 0.1093835 -0.4710024 -0.0604718 0.2655533 0.3014586
0.4625752 -0.24253945 0.21869794 -0.40559113 -0.17669898 -0.26562986 -0.18717174 0.30485138
0.21979454 -0.2829134 -0.122671835 -0.1538475 -0.24325907 -0.33524325 0.37261114 0.33601576
0.41629347 -0.37880123 0.37826148 -0.18799958 -0.1540946 -0.18862918 -0.0977583 -0.33051887
-0.037068803 -0.3344418 0.21128249 -0.43041962 -0.22235931 -0.39054438 0.35763404 0.36664936
-0.41775173 -0.31213242 0.4271342 0.10632894 0.31904554 -0.38156322 0.20427291 0.301435
-0.16672976 -0.06869665 0.3535515 0.15760393 0.14623517 -0.0278731 -0.26222184 -0.3521053
0.5146063 -0.14285964 0.43825498 0.36532673 -0.30854598 -0.06681951 -0.16879022 -0.07011994
0.28710803 0.24225783 -0.2716504 -0.313251 -0.392078 -0.4282992 0.33149695 -0.33503821
00000000: 9ca8 fb3c d700 a2bb c00e a73d ac75 85be
00000010: 9984 02bf f876 15bd 0425 7abe 999b 88be
00000020: def9 c03e df99 bd3d 804c 683e 6a1f 1abe
00000030: 3a22 aebe dcbb 133d 53b5 b5be ee3f 02ba
00000040: 284d d4be 0c2e c13e 0864 aebe 5fd4 e53e
00000050: 5e69 a13e cd95 c83e db10 843e 5f4f 0e3d
00000060: 7c21 90bd 0a1f 2ebd 4671 53be 65a9 03bf
00000070: d22a f03e 3ee6 1abd 1e89 863e b15e 0ebc
00000080: 9c36 0b3e e349 8fbe 37e8 c4be 8272 cb3e
00000090: b5b9 2c3e 0139 7b3e 75a7 e9be 031b 133b
000000a0: cf6b bfbe 092c bbbd f716 cbbd 435d c2be
000000b0: 8503 16bf 329e 22bd 9b40 eb3e ed11 eb3e
000000c0: 2413 b2be 622f febd 0c14 d6be 96ec c7be
000000d0: ec43 3abe f1f2 003f 6111 4cbe 25bf 373c
000000e0: 75b1 ee3e c84e 8abd 78ff d43e b057 a83e
000000f0: 726e f43e dc99 c83d 8460 e6be 7189 f7be
00000100: 1d7b 9abe b133 d63e e318 943e c8d7 a33d
00000110: 8d7c d0be 3221 cabe 7502 d03e f493 17be
00000120: a0c4 0fbf e87f 1fbe 6a7c 11be 4feb 39bc
00000130: 5e75 513e 215b 243e f8a7 e3be e59f 12bc
00000140: 2085 5cbe e7b1 ae3e e8c3 853e 184a 753e
00000150: f278 f03e a758 353e 6f9b 03bf e4a9 a63c
00000160: 89a2 c9be ccee 703c 5996 26bd 0c51 033f
00000170: 6960 c7be 6b99 04bf c992 0bbe cd15 463d
00000180: a0f6 b93e 34a1 da3e 875c cb3e 4196 1e3e
00000190: baa4 65be d1de 31be 3751 b1be f6f6 973d
000001a0: 0ab4 c2be 0625 413e 594b a03e 2137 e23e
000001b0: 12df 03bf d627 ca3e 7027 83be 804c 82bd
000001c0: 1e94 f33e f94c 903e 6c8d 84be 30d1 803e
000001d0: 0427 05bf 327d ba3e a2c1 fd3e 953c a8bd
000001e0: 427d 993d a0ca 50be 7f25 c0be 47f4 95be
000001f0: 138f cebd a414 f9be 36c3 b7be 10b8 24bc
00000200: ec4a d0be 4828 adbe a3c0 f5bc 87bb 90be
00000210: 1986 d53e 890b 54be b635 9fbe 15e8 20be
00000220: c3ab f2be b8de 8a3e 9e4f c63e c8ab 8abe
00000230: 3ac1 49be 39d9 f93e 5c30 b9be ec3d 063e
00000240: 7294 d0be 0b18 0cbf 0ee5 9bbd 3972 9cbe
00000250: 638c 923e 07b0 4ebe a0fd 19bd 394d 98be
00000260: b187 5a3e 2ada f63e ba21 32be 1cef 8fbe
00000270: 5f01 06bf 7bdb fd3e 367e 633e ba75 483e
00000280: 5540 2b3d 67d3 7f3e 5a77 2d3e ed1c 7f3e
00000290: 7f99 a53e 5058 6b3d c56a ce3e 9d64 943e
000002a0: eae8 d4bd 2fc7 9abe b29b d83c 7af1 cd3e
000002b0: 6e98 a63e 7735 70be 6f6b 0dbe 9f93 133e
000002c0: a6ea 3f3e e754 ed3e fe6c 823e 1473 e13d
000002d0: 5ee3 083e a61f 0bbf f958 6abe b0ed 963b
000002e0: f016 b2be 9da2 e8be ea53 b93e 7504 e03d
000002f0: 3a27 f1be 47b1 77bd 9af6 873e c858 9a3e
00000300: a8d6 ec3e 435c 78be 5af2 5f3e a4a9 cfbe
00000310: 94f0 34be a300 88be f3a9 3fbe 7b15 9c3e
00000320: d211 613e 06da 90be 5f3b fbbd 338a 1dbe
00000330: e818 79be 01a5 abbe e3c6 be3e 420a ac3e
00000340: 6b24 d53e 3cf2 c1be 7dab c13e f682 40be
00000350: faca 1dbe 0228 41be 8135 c8bd c539 a9be
00000360: 75d5 17bd f53b abbe 705a 583e f65f dcbe
00000370: 29b2 63be 6ff5 c7be cf1b b73e 77b9 bb3e
00000380: 8ee3 d5be d2cf 9fbe 55b1 da3e fdc2 d93d
00000390: f059 a33e 415c c3be eb2c 513e b055 9a3e
000003a0: 35bb 2abe d4b0 8cbd b404 b53e ed62 213e
000003b0: acbe 153e 2156 e4bc f141 86be 2547 b4be
000003c0: 3dbd 033f cc49 12be f562 e03e 1b0c bb3e
000003d0: bdf9 9dbe abd8 88bd 58d7 2cbe 0b9b 8fbd
000003e0: d3ff 923e 7012 783e c315 8bbe 6f62 a0be
000003f0: 73be c8be 084a dbbe f8b9 a93e 218a abbe

ff_1.weight f4 [256, 256]
0.005449971 -0.010407803 0.01830375 -0.019793818 0.019536447 0.0015022056 -0.016918514 -0.07076208
0.019475333 0.02238751 0.05596421 -0.0030522004 -0.08390599 -0.016469222 -0.018579222 0.044915374
-0.06809306 0.02286435 0.05708553 -0.010939814 0.0036802148 0.010064634 0.036077786 0.027951797
0.0014828605 0.014590735 -0.055312216 -0.0063471715 -0.006791476 0.032975525 0.0037565355 -0.14495812
0.017653963 -0.14532118 -0.026187679 0.018081244 0.010726362 0.046397436 -0.037969295 -0.03376414
-0.2779078 -0.004350917 -0.005501819 0.018809961 -0.022844058 0.031402003 -0.038483363 -0.03914429
0.0035127376 -0.033092994 -0.018226497 0.0070399195 -0.06322055 0.061005384 -0.0398635 0.0454065
0.032698583 -0.010295609 -0.0358661 0.027231665 -0.015117706 0.054398656 -0.051618747 -0.021383956
-0.049378768 -0.022362832 -0.014278252 0.0008382431 -0.011982281 0.00950618 0.05050054 -0.023822801
-0.05077156 -0.016218336 0.040492684 0.0021794566 -0.0437822 0.0629032 -0.015912313 0.002580207
-0.028494999 0.05989931 -0.02099387 0.06276721 0.07692131 -0.010115923 0.0394457 0.029147826
0.039890487 -0.00021408993 -0.04369875 -0.0032362973 -0.039350327 0.003013982 0.06329179 0.060735073
0.06729652 0.016833724 0.018098844 0.044289634 0.033666503 -0.11006194 -0.01379825 0.023915237
-0.014763943 -0.030654235 -0.015801776 0.0709241 0.047035873 -0.01045971 -0.10775903 -0.010501023
-0.010875564 0.0640069 -0.06337492 0.036346473 -0.09411277 -0.010119523 0.0052522016 0.0071607768
-0.007814906 -0.02678682 -0.036553014 -0.0426541 -0.037142437 -0.040887695 -0.03501835 -0.021676548
-0.052309003 0.05879139 0.019763306 0.03280131 -0.047006585 -0.075331904 -0.040301263 -0.09496916
-0.03558429 0.044127423 0.05213763 -0.22297457 -0.035332717 -0.017007502 0.014366254 0.02987458
0.01000198 0.006755831 -0.0008580573 0.024051147 0.024361577 0.046162892 -0.004726885 -0.044837892
0.059548307 0.020506598 -0.2142934 -0.08831764 0.018094601 -0.013083954 0.04964076 -0.036289115
0.03318031 0.025882704 0.045319322 -0.035874367 -0.04218796 0.034094546 -0.006350958 0.03653689
-0.10070536 -0.016501969 -0.0025663576 0.055754576 0.05440042 -0.027147627 -0.031866927 0.0045167003
0.028567618 -0.03391938 -0.002954625 -0.04866069 0.016119316 -0.020017898 0.019057784 0.042344287
-0.05343958 -0.04477903 0.0049749715 -0.0017216094 -0.016615197 -0.04205758 -0.0021470496 0.01795104
0.07142865 -0.009854306 0.060116168 -0.05052188 -0.034126703 -0.11685912 -0.4209482 0.023893217
-0.021530861 0.029728685 0.047012586 -0.06336021 -0.010096775 -0.031225879 -0.015990926 -0.036099862
-0.009376345 0.024269015 0.03411587 0.0556294 -0.023009574 0.039209925 0.012675387 -0.0033967118
-0.0027090844 -0.10315431 0.016555745 -0.036053658 -0.029910633 -0.03750413 -0.0018029648 -0.02982063
-0.023377607 -0.012161898 0.0015373307 0.070937335 0.0598544 -0.03272744 -0.0074504046 0.013952498
-0.04754457 0.059586298 0.07515878 0.0018179301 0.06627301 0.07166038 -0.016994314 -0.034889642
0.024286507 0.014793399 -0.038832743 0.014830447 -0.035847474 0.037463024 -0.008623749 0.031856965
0.0648893 -0.010985228 -0.31111446 -0.004971816 -0.04194257 -0.09506997 0.02153035 0.015025404
00000000: ac95 b23b 7d85 2abc bff1 953c a526 a2bc
00000010: e60a a03c a8e5 c43a b298 8abc b6eb 90bd
00000020: bc8a 9f3c 0366 b73c ba3a 653d 6d07 48bb
00000030: e7d6 abbd 76ea 86bc 7433 98bc 2ff9 373d
00000040: 6074 8bbd 044e bb3c 84d2 693d e83c 33bc
00000050: c22f 713b 22e6 243c 4dc6 133d 2bfb e43c
00000060: 8b5c c23a fa0d 6f3c 108f 62bd effb cfbb
00000070: 088b debb 5811 073d 3530 763b e76f 14be
00000080: 0b9f 903c 13cf 14be 8b87 d6bc 1e1f 943c
00000090: 9fbd 2f3c 3d0b 3e3d b185 1bbd 444c 0abd
000000a0: ee49 8ebe 2392 8ebb 9a48 b4bb 5917 9a3c
000000b0: 7623 bbbc 639f 003d bba0 1dbd c355 20bd
000000c0: f535 663b 858c 07bd bc4f 95bc 20af e63b
000000d0: c779 81bd c8e0 793d e947 23bd 2bfc 393d
000000e0: f3ee 053d eaae 28bc 55e8 12bd f114 df3c
000000f0: 41b0 77bc 20d1 5e3d 2e6e 53bd 682d afbc
00000100: 6441 4abd 4232 b7bc 54ef 69bc 8bbd 5b3a
00000110: 5451 44bc cfbf 1b3c a7d9 4e3d 0928 c3bc
00000120: d7f5 4fbd 51dc 84bc a8db 253d 37d5 0e3b
00000130: f754 33bd 65d3 803d 8a5a 82bc b118 293b
00000140: 586e e9bc fb58 753d 56fb abbc 188c 803d
00000150: eb88 9d3d 42bd 25bc d091 213d 6cc7 ee3c
00000160: 3564 233d 547d 60b9 76fd 32bd 0f18 54bb
00000170: cf2d 21bd 3a86 453b 209f 813d 57c5 783d
00000180: c2d2 893d e1e6 893c 0744 943c 0c69 353d
00000190: e3e5 093d 2868 e1bd 0e12 62bc e3e9 c33c
000001a0: 77e4 71bc 971e fbbc ba72 81bc a840 913d
000001b0: b0a8 403d 345f 2bbc c4b0 dcbd 7c0c 2cbc
000001c0: 6c2f 32bc 0d16 833d b6ca 81bd 0ae0 143d
000001d0: 32be c0bd 5bcc 25bc a91a ac3b f3a4 ea3b
000001e0: 170a 00bc 0870 dbbc 9db8 15bd 11b6 2ebd
000001f0: ab22 18bd db79 27bd 676f 0fbd 0493 b1bc
00000200: f741 56bd 3ecf 703d a8e6 a13c ab5a 063d
00000210: fa89 40bd 9d47 9abd f012 25bd 317f c2bd
00000220: d5c0 11bd f5be 343d 448e 553d 7253 64be
00000230: 0ab9 10bd 5153 8bbc 7060 6b3c 89bb f43c
00000240: 58df 233c 0560 dd3b 40ef 60ba e906 c53c
00000250: ee91 c73c 4d15 3d3d fce3 9abb f0a7 37bd
00000260: ede8 733d 74fd a73c bb6f 5bbe e1df b4bd
00000270: 213b 943c 155e 56bc 1c54 4b3d e5a3 14bd
00000280: 14e8 073d f707 d43c c1a0 393d 00f1 12bd
00000290: 48cd 2cbd b9a6 0b3d b21b d0bb b5a7 153d
000002a0: 9d3e cebd 232f 87bc 5630 28bb e95e 643d
000002b0: fad2 5e3d b364 debc e586 02bd d400 943b
000002c0: a306 ea3c 0cef 0abd 62a2 41bb 6f50 47bd
000002d0: a80c 843c 93fc a3bc 121f 9c3c 3471 2d3d
000002e0: 76e3 5abd 376a 37bd 1605 a33b a0a7 e1ba
000002f0: 981c 88bc 9244 2cbd 84b5 0cbb 0f0e 933c
00000300: 2f49 923d f473 21bc 5f3c 763d 08f0 4ebd
00000310: 71c8 0bbd d653 efbd 8686 d7be b5bb c33c
00000320: 7d61 b0bc 9289 f33c 4590 403d ffc2 81bd
00000330: f26c 25bc 6acd ffbc 67ff 82bc 73dd 13bd
00000340: 3e9f 19bc d0cf c63c 15bd 0b3d a7db 633d
00000350: 937e bcbc 969a 203d 6dac 4f3c 5e9b 5ebb
00000360: e58a 31bb 9142 d3bd ea9f 873c 00ad 13bd
00000370: 2507 f5bc ee9d 19bd 7651 ecba 654a f4bc
00000380: 6582 bfbc b342 47bc 4280 c93a 9847 913d
00000390: e329 753d 350d 06bd 8622 f4bb 0599 643c
000003a0: 18be 42bd c310 743d d9ec 993d 9d47 ee3a
000003b0: 25ba 873d adc2 923d a937 8bbc 71e8 0ebd
000003c0: 7ff4 c63c 0360 723c 150f 1fbd 67fb 723c
000003d0: cdd4 12bd d472 193d a04a 0dbc 737c 023d
000003e0: aee4 843d 63fb 33bc 654a 9fbe 9eea a2bb
000003f0: f9cb 2bbd 0bb4 c2bd 6b60 b03c 1d2d 763c

ff_1.bias f4 [256]
0.073907726 -0.045696247 -0.002663848 0.080174 0.036193 -0.016655805 -0.040421784 -0.040746395
-0.020248592 0.044946115 -0.0008000492 -0.03605888 0.015279903 0.032791432 0.010798992 0.038911372
0.06490373 -0.006425174 0.006895517 0.061787043 0.013930243 0.034219883 -0.060944244 0.0190317
-0.0030383468 0.044477347 0.02190119 0.073110275 0.049489163 0.063692816 0.029482955 -0.006444916
0.04285035 0.010488501 -0.06911506 0.030347668 -0.020860158 -0.018167 -0.026490455 -0.02272132
0.0019138298 -0.0039619724 -0.039800473 0.051320046 0.075470686 0.0008446126 -0.010908996 -0.0243542
0.062187918 0.05366607 -0.040883284 -0.061058257 -0.005290593 -0.030322868 -0.046063047 -0.03886276
0.019426635 0.041617285 -0.042040594 -0.0036047108 -0.02702568 -0.046770632 -0.021197911 0.034622826
-0.0037405465 0.010546251 0.017038662 0.012895705 0.04874267 0.04375808 -0.03746601 -0.04543196
-0.03774859 -0.04554013 -0.017118834 -0.020952305 0.003870164 -0.051883686 0.011595298 0.07477828
-0.06669856 3.7881986e-05 -0.0011514546 -0.04968928 0.0153928315 -0.040769927 -0.030849623 0.03200555
0.005157557 -0.023626732 0.043451197 -0.023647513 0.043293364 0.03606967 0.03550791 0.028517917
-0.030828696 0.007875443 0.06840112 0.005218708 0.029686851 -0.019466566 -0.042196263 -0.00962089
-0.058987476 0.07626774 0.044288147 0.00067859143 0.0032940388 -0.04243909 -0.025685452 -0.018808635
0.00041591327 0.07646888 -0.015076085 0.030232701 0.007854103 -0.03742623 0.016660184 0.0031034206
0.08106484 -0.05167225 0.022084475 -0.060768206 -0.022061292 -0.0042323023 -0.071579896 -0.032755915
-0.009960887 0.04743738 -0.026192885 -0.0015035331 0.044319052 0.034941804 0.07846286 -0.017953804
-0.0074736355 -0.05832334 -0.053507503 -0.01847166 0.08701906 -0.012185151 -0.016703213 0.0090671275
0.052731797 -0.024185836 0.067662254 0.015244125 0.00038403273 0.017999906 -0.04542961 -0.017686341
0.017382758 0.04060482 0.02368947 0.0019737617 -0.005309332 -0.008710014 -0.06152091 0.07747935
-0.038715277 0.030538335 0.036874183 -0.004615721 0.005511105 -0.028988771 0.020934127 0.02312612
0.03585358 -0.043897714 0.046176005 0.019562969 0.056123346 0.007532426 0.025281897 0.062081307
-0.049335968 0.032356773 0.042469636 -0.061706506 -0.01987216 -0.022326352 -0.03858194 0.07515869
0.014224675 -0.023251 -0.011796001 -0.076229595 -0.028113123 0.025910338 -0.0046647512 0.0194792
0.0025306344 0.010542169 0.02231797 0.03282964 -0.0027432563 0.061072707 0.033204813 0.03864253
0.002560325 0.070233375 0.043290958 -0.027048957 -0.020017773 -0.038488805 0.01743429 0.06537091
-0.032755025 -0.043166306 -0.04089598 -0.035481416 0.057480864 0.045718584 0.0071541085 -0.017670127
0.03533705 -0.030778669 0.06694529 -0.03497635 -0.021826312 -0.056569748 -0.049282465 -0.011284347
-0.05471172 -0.04400652 0.0047382414 -0.056051094 0.03732828 -0.03428413 0.058187746 0.024156617
0.02177334 0.019864064 0.004623054 0.0248181 -0.060708135 0.08739192 -0.01709362 0.045313027
-0.02326571 0.00016271127 0.007175516 0.051992137 -0.057914637 0.053830553 -0.004361547 -0.033829007
0.037136506 0.072562575 0.023117919 0.003227447 -0.021584935 -0.054636363 -0.068218015 0.04805554
00000000: ef5c 973d fd2b 3bbd f493 2ebb 4432 a43d
00000010: 1c3f 143d c171 88bc 5091 25bd b1e5 26bd
00000020: 60e0 a5bc 6b19 383d 65ba 51ba 7ab2 13bd
00000030: 8f58 7a3c 4f50 063d 41ee 303c 8861 1f3d
00000040: 3fec 843d 448a d2bb caf3 e13b 6914 7d3d
00000050: ad3b 643c 262a 0c3d aca0 79bd 5ee8 9b3c
00000060: 001f 47bb e12d 363d 206a b33c d7ba 953d
00000070: 26b5 4a3d 6171 823d 3d86 f13c e02f d3bb
00000080: d983 2f3d f6d7 2b3c 328c 8dbd ac9b f83c
00000090: ece2 aabc f6d2 94bc 8302 d9bc 1022 babc
000000a0: 79d9 fa3a 6fd3 81bb d205 23bd f834 523d
000000b0: 6090 9a3d fe68 5d3a a5bb 32bc 7682 c7bc
000000c0: c2b8 7e3d f4d0 5b3d 3b75 27bd 3918 7abd
000000d0: b65c adbb aa67 f8bc 9bac 3cbd 8f2e 1fbd
000000e0: 9b24 9f3c e376 2a3d c232 2cbd 033d 6cbb
000000f0: f564 ddbc 9092 3fbd 3ea7 adbc aad0 0d3d
00000100: f523 75bb 2fca 2c3c aa94 8b3c 8248 533c
00000110: 65a6 473d ac3b 333d f575 19bd dd16 3abd
00000120: 449e 1abd 4a88 3abd cc3c 8cbc 2ba4 abbc
00000130: 94a2 7d3b fd83 54bd 34fa 3d3c 5b25 993d
00000140: 4199 88bd 79e3 1e38 68ec 96ba fd86 4bbd
00000150: 3732 7c3c 5efe 26bd 59b8 fcbc 4018 033d
00000160: b900 a93b d98c c1bc e2f9 313d 6eb8 c1bc
00000170: 6254 313d cabd 133d be70 113d 689e e93c
00000180: 768c fcbc 0108 013c e315 8c3d b201 ab3b
00000190: d731 f33c 5978 9fbc fdd5 2cbd f0a0 1dbc
000001a0: da9c 71bd 4332 9c3d 7d67 353d 80e3 313a
000001b0: cde0 573b 9cd4 2dbd 4c6a d2bc 9114 9abc
000001c0: ef0e da39 b79b 9c3d af01 77bc 92aa f73c
000001d0: 7fae 003c 3f4c 19bd f07a 883c c262 4b3b
000001e0: 5305 a63d 48a6 53bd 80ea b43c 15e8 78bd
000001f0: e2b9 b4bc 20af 8abb 7b98 92bd 112b 06bd
00000200: fd32 23bc b34d 423d 7692 d6bc 3312 c5ba
00000210: e587 353d 231f 0f3d 23b1 a03d db13 93bc
00000220: 66e5 f4bb 74e4 6ebd af2a 5bbd e151 97bc
00000230: 0d37 b23d 3aa4 47bc 2dd5 88bc 4a8e 143c
00000240: 4cfd 573d 6021 c6bc 8292 8a3d 7fc2 793c
00000250: 0058 c939 8a74 933c 6614 3abd f2e2 90bc
00000260: 4966 8e3c 3d51 263d 6b10 c23c 3a5a 013b
00000270: e8f9 adbb 72b4 0ebc 5afd 7bbd 7ead 9e3d
00000280: e993 1ebd 882b fa3c 6209 173d 793f 97bb
00000290: 8096 b43b dc79 edbc 0c7e ab3c fd72 bd3c
000002a0: 34db 123d 17ce 33bd 0d23 3d3d 8542 a03c
000002b0: 98e1 653d 92d2 f63b fb1b cf3c f848 7e3d
000002c0: 8314 4abd 8988 043d a4f4 2d3d f6bf 7cbd
000002d0: f1ca a2bc c1e5 b6bc 1908 1ebd cdec 993d
000002e0: 9c0e 693c e278 bebc 0444 41bc 431e 9cbd
000002f0: 7e4d e6bc eb41 d43c c5da 98bb d892 9f3c
00000300: 00d9 253b 10b9 2c3c 2dd4 b63c 5f78 063d
00000310: 34c8 33bb 6027 7a3d c501 083d a147 1e3d
00000320: 20cb 273b 84d6 8f3d dc51 313d c695 ddbc
00000330: 50fc a3bc 70a6 1dbd 5bd2 8e3c 2fe1 853d
00000340: 222a 06bd 27cf 30bd 8b82 27bd f654 11bd
00000350: 0e71 6b3d 6943 3b3d 036d ea3b f1c0 90bc
00000360: 95bd 103d 8c23 fcbc 9d1a 893d 5c43 0fbd
00000370: 18cd b2bc aeb5 67bd 69dc 49bd fbe1 38bc
00000380: 6619 60bd 2e40 34bd 4043 9b3b d595 65bd
00000390: 8ae5 183d 846d 0cbd 4656 6e3d 19e4 c53c
000003a0: 015e b23c f6b9 a23c fd7c 973b 544f cb3c
000003b0: 18a9 78bd 89fa b23d eb07 8cbc 279a 393d
000003c0: bb97 bebc 799d 2a39 9720 eb3b b5f5 543d
000003d0: e637 6dbd 6d7d 5c3d 4feb 8ebb 4990 0abd
000003e0: 731c 183d b09b 943d ca61 bd3c 9383 533b
000003f0: e4d2 b0bc 61ca 5fbd e3b5 8bbd e3d5 443d

ff_2.weight f4 [2, 256]
0.05926692 0.0040459507 -0.047012147 0.055569313 -0.022073777 -0.012269621 0.04356678 0.014757846
-0.0059512556 -0.049855962 -0.0327945 0.039481588 0.03553534 0.029564744 0.0034100257 0.056654334
0.004713468 -0.013562978 -0.025621798 0.05397459 0.052247453 0.03935038 -0.00848735 0.027203348
0.036466576 0.020420782 0.061346024 0.024492528 0.0030498211 0.004170001 -0.00573689 0.042758245
0.03487664 0.04934475 0.013566309 -0.018921664 -0.025162417 0.026034098 0.010469948 0.030804966
-0.013886969 0.008535159 0.043321297 0.042420864 0.070400745 0.05908856 -0.022226792 -0.01777323
0.037221394 0.0310791 0.016787633 -0.00053417886 0.046919215 -0.011934086 -0.034309067 0.0095290225
0.012813016 -0.027602242 0.004254131 0.031098004 -0.030062953 -0.00449223 0.025434157 0.052559044
0.03100573 0.05041846 -0.0040731006 0.009896433 0.054324985 0.008514561 0.052741908 0.029830705
-0.036279745 -0.03575752 0.023163144 -0.03625593 0.010188175 0.033991426 0.015421341 0.06417132
0.041142818 0.021079153 0.056097575 -0.015855823 -0.04153093 0.014974731 0.03897488 0.028782701
0.010305442 -0.02853544 -0.030163633 0.0019522959 0.031783767 0.05676296 0.028305996 -0.009534962
-0.03553336 -0.03166633 0.058587667 -0.002312396 0.008874816 -0.025766049 0.037399884 0.055382423
-0.0075116046 0.009644265 -0.015233604 -0.04205489 0.010823909 0.034858778 0.0201889 0.027246786
0.010445469 0.019598745 0.025539862 -0.03496413 0.043483857 -0.012286248 -0.0003128722 0.05717019
0.047802348 0.005794327 0.016064718 -0.031143878 0.033360247 0.05489908 -0.020663453 -0.037076548
0.031873338 -0.016812943 -0.007693449 0.017350722 0.0067180633 -0.03833675 0.046013165 0.011144866
0.053405214 -0.047985204 0.04984219 -0.009152766 0.04675372 -0.030847134 -0.00080757117 -0.032565575
0.055233065 -0.001098962 0.01897102 0.010758638 -0.051679693 -0.021718567 -0.025367476 -0.017456139
-0.026701335 0.031989757 0.05914394 0.03151363 -0.03235029 0.046938915 0.008322999 0.07735966
-0.024678634 0.014969578 -0.0021875799 0.017803127 0.05553466 0.021351103 0.018042823 0.041832674
-0.028153468 0.030649709 -0.022094473 -0.017311927 -0.0304465 -0.040539898 -0.0004836719 0.02365139
0.014323486 0.045368437 0.025444057 0.0010995405 0.035176218 0.033222187 -0.05336393 0.02599221
-0.01743521 -0.047284942 -0.0056726555 0.007264352 -0.03516311 -0.03497589 -0.021646203 0.028188283
0.05234865 0.012638539 0.03456643 0.05575716 -0.018882653 0.016568795 0.021409718 0.046182904
0.0063712606 0.061027255 0.012278982 -0.03613936 -0.0112231225 0.036573768 -0.007012404 0.036427997
0.024826907 -0.037944824 -0.013976301 0.005857781 0.013350899 0.06076761 0.056057114 -0.0024484338
0.004969213 -0.012475895 0.03204264 0.03621334 -0.024149742 0.013169708 -0.011407688 -0.049941823
0.012804496 0.018097116 0.059090644 0.047680978 8.448804e-05 0.0077826707 9.2261485e-05 0.048953094
-0.0468563 0.060298212 -9.0707705e-05 0.053892955 -0.046824258 0.05875684 -0.011195523 0.016432913
-0.009097334 0.0052686296 -0.011345122 -0.018238192 -0.04025861 -0.04341887 -0.011899041 -0.038995035
0.069990575 0.0032825777 0.033716016 0.034021173 -0.021514092 0.007465529 0.0534914 0.0121760005
00000000: dfc1 723d e593 843b cf8f 40bd a69c 633d
00000010: 11d4 b4bc 8506 49bc 1473 323d e4ca 713c
00000020: c002 c3bb c435 4cbd 8753 06bd 72b7 213d
00000030: 818d 113d c331 f23c bd7a 5f3b 600e 683d
00000040: 6f73 9a3b 4137 5ebc cee4 d1bc 7614 5d3d
00000050: 6d01 563d dd2d 213d 870e 0bbc 8ed9 de3c
00000060: fa5d 153d 7c49 a73c f845 7b3d 8ea4 c83c
00000070: 82df 473b 81a4 883b 85fc bbbb 4523 2f3d
00000080: cfda 0e3d b81d 4a3d 3945 5e3c 9b01 9bbc
00000090: 6a21 cebc 7645 d53c 258a 2b3c b25a fc3c
000000a0: 2b86 63bc 0dd7 0b3c ac71 313d 80c1 2d3d
000000b0: 442e 903d d906 723d f614 b6bc 2a99 91bc
000000c0: 7675 183d 9999 fe3c 3886 893c 2308 0cba
000000d0: 5d2e 403d 2f87 43bc aa87 0cbd 9e1f 1c3c
000000e0: afed 513c 191e e2bc 3d66 8b3b 3ec1 fe3c
000000f0: 9546 f6bc 8e33 93bb 4b5b d03c 2748 573d
00000100: bbff fd3c 9683 4e3d a577 85bb a624 223c
00000110: e083 5e3d a880 0b3c e607 583d 865f f43c
00000120: 129a 14bd 7a76 12bd a2c0 bd3c 1981 14bd
00000130: 4eec 263c 983a 0b3d cba9 7c3c 416c 833d
00000140: 5f85 283d 30ae ac3c 92c6 653d 12e4 81bc
00000150: 561c 2abd 9358 753c 20a4 1f3d b3c9 eb3c
00000160: 28d8 283c 28c3 e9bc b919 f7bc 2ee4 ff3a
00000170: b22f 023d 4780 683d fae1 e73c 8738 1cbc
00000180: 6e8b 11bd 8eb4 01bd 9ff9 6f3d 918b 17bb
00000190: ad67 113c 5213 d3bc 9f30 193d aed8 623d
000001a0: e823 f6bb fb02 1e3c 5e96 79bc c041 2cbd
000001b0: c456 313c 14c8 0e3d 3163 a53c a734 df3c
000001c0: 7923 2b3c 8c8d a03c f938 d13c 8c36 0fbd
000001d0: 211c 323d 424c 49bc ff08 a4b9 4a2b 6a3d
000001e0: 65cc 433d 56de bd3b 289a 833c 7221 ffbc
000001f0: c1a4 083d dcdd 603d 6746 a9bc 94dd 17bd
00000200: 9e8d 023d 4cbb 89bc 5419 fcbb 1a23 8e3c
00000210: 3323 dc3b ff06 1dbd 4d78 3c3d f598 363c
00000220: 6dbf 5a3d 228c 44bd 5327 4c3d 7cf5 15bc
00000230: d480 3f3d 21b3 fcbc 2fb3 53ba 7b63 05bd
00000240: 113c 623d 0c0b 90ba 1d69 9b3c 0045 303c
00000250: 16ae 53bd 23eb b1bc 74cf cfbc 2d00 8fbc
00000260: c2bc dabc b107 033d eb40 723d 7014 013d
00000270: bd81 04bd 0543 403d 305d 083c be6e 9e3d
00000280: d92a cabc f642 753c 805d 0fbb ddd7 913c
00000290: 5078 633d 82e8 ae3c 8bce 933c bd58 2b3d
000002a0: 1aa2 e6bc 1915 fb3c 78ff b4bc bed1 8dbc
000002b0: f06a f9bc 2a0d 26bd 5895 fdb9 8fc0 c13c
000002c0: 0ead 6a3c 41d4 393d 0e70 d03c 751e 903a
000002d0: f014 103d fd13 083d 2394 5abd 9ded d43c
000002e0: 49d4 8ebc dbad 41bd afe1 b9bb cd09 ee3b
000002f0: 3107 10bd e142 0fbd 6153 b1bc 1deb e63c
00000300: 8a6b 563d e011 4f3c 8795 0d3d 9f61 643d
00000310: cbaf 9abc 48bb 873c 6f63 af3c 492a 3d3d
00000320: 02c6 d03b b7f7 793d c92d 493c de06 14bd
00000330: 30e1 37bc 60ce 153d 4fc8 e5bb 8635 153d
00000340: cc61 cb3c 086c 1bbd dbfc 64bc a1f2 bf3b
00000350: bbbd 5a3c 75e7 783d 259c 653d e775 20bb
00000360: c8d4 a23b b267 4cbc 253f 033d 7054 143d
00000370: aed5 c5bc c2c5 573c 50e7 3abc cc8f 4cbd
00000380: f3c9 513c 6740 943c 0809 723d 214d 433d
00000390: 2c2f b138 c605 ff3b 827c c138 0a83 483d
000003a0: 64ec 3fbd 42fb 763d 543a beb8 dcbe 5c3d
000003b0: cbca 3fbd 03ab 703d 6d6d 37bc 519e 863c
000003c0: fc0c 15bc 78a4 ac3b e4e0 39bc 4368 95bc
000003d0: 36e6 24bd fcd7 31bd 32f4 42bc 42b9 1fbd
000003e0: 3857 8f3d 8420 573b ce19 0a3d c959 0b3d
000003f0: 523e b0bc 65a1 f43b cc19 5b3d d97d 473c

ff_2.bias f4 [2]
0.021888718 0.00372686
00000000: f84f b33c 563e 743b
