CQL-SAC-discrete/trained_models/CQL-SAC-discreteCQL-SAC-discrete0.pth (torch, 272215 bytes, 6 tensors)

fc1.weight f4 [256, 4]
0.66142845 0.2555448 0.136072 0.19603655 -0.66201764 0.5204253 1.1107492 0.043212302
-0.16399282 0.049265232 1.2874216 -0.0019065246 0.18579568 -0.19160728 -0.03755664 -0.047835268
-0.051430713 -0.018232075 1.005836 0.31696057 0.19365284 -0.327958 -0.7461506 -0.20533577
-0.193185 0.032000422 1.0086122 0.44175035 -0.69612986 0.30477506 0.84774303 0.24740924
0.81242996 -0.41438445 -1.6811641 -0.4252512 1.0214813 -0.1489152 -0.86032814 -0.21802326
0.11928642 -0.1929795 1.2880502 -0.08289364 -0.26340872 0.25700742 -0.26541007 0.14705235
-0.17334476 0.010154397 -0.4902403 -0.3605694 -0.14566192 -0.03435017 1.8741153 0.39094207
-0.13763608 -0.3269182 0.7977598 0.3220572 -0.6253786 0.39863104 1.3760706 0.36609384
-0.30573577 -0.096759915 0.41969216 0.032219876 -0.3509886 -0.08316538 1.3607727 -0.035420693
0.3020554 0.06714238 0.55849546 0.15660474 0.84713155 0.38308534 -1.0862823 0.14186615
0.08117683 -0.2812754 -0.61996925 0.019088354 0.5252953 0.23717456 0.3481987 0.096345
0.1887968 0.019251855 -0.87908536 -0.17123888 0.3829367 -0.1246504 -1.4873707 -0.09210273
0.7787954 0.05129062 -1.2337661 -0.080880396 0.5307173 0.37290147 1.8128881 0.34317154
-0.34269062 -0.34170988 0.95359874 0.023773516 -0.10298667 0.11532198 0.72971106 0.4703909
0.24944843 -0.20431067 1.218921 0.35548842 0.6129362 0.22354053 -1.2971454 -0.404659
-0.34375638 0.21243463 1.7504351 -0.16385917 0.59135115 -0.36110246 -1.3127137 -0.2410224
0.17018381 0.66250455 1.3137125 0.54909545 0.7671086 0.8949057 1.1698648 0.7128433
0.54982823 0.19924696 -0.87459743 -0.7295136 0.19802806 0.0125121325 -0.8166742 0.27401006
-0.2096387 0.088123076 1.4039316 0.09541575 0.24995849 0.73642105 1.3359522 0.6075238
-0.19245732 -0.042033467 -0.50394416 -0.45360997 -0.04606436 -0.0077509214 0.12438716 -0.27128914
-0.399273 0.20448561 0.7084517 0.47870725 -0.23678096 -0.08593648 -0.78494257 0.11445271
-0.52086437 -0.16206902 0.5556779 -0.09569975 -0.2470515 -0.0009521893 1.1981446 0.65082824
0.044151247 0.013846235 0.112176314 0.46114632 0.34100354 -0.15269348 -1.2990812 -0.082470536
0.05030101 0.28630784 -1.4045838 -0.24793854 -0.22450632 -0.11994743 1.2637643 -0.1386201
-0.11896529 0.10878854 0.5858178 -0.25304022 0.22605947 0.1662532 0.27487996 -0.37495485
0.1149099 -0.35109177 0.49984798 -0.21871595 0.33832082 0.0489452 -0.0014605403 0.07767348
0.24918365 0.5063485 1.2777451 0.43504784 -0.74894077 0.46366233 1.6514386 0.5119962
0.7733597 0.30498588 1.1802509 0.27522668 -0.21547268 0.3065363 -1.3711733 -0.3393038
0.3075169 -0.24089646 0.06866421 0.10354507 0.65190953 0.36759257 -1.1641034 -0.46577433
1.25643 0.084921 -1.0212077 0.0035351599 -0.21826114 0.32269934 0.12839317 -0.4647192
0.51080203 0.38882852 0.077192076 0.12016508 0.14743951 -0.17729469 -1.334405 -0.12096022
-0.15877461 0.6133324 0.778133 -0.26806334 0.24731618 0.31060758 -0.27603585 -0.5731327
00000000: 6053 293f c5d6 823e 7556 0b3e cebd 483e
00000010: fd79 29bf 983a 053f 082d 8e3f 62ff 303d
00000020: bced 27be 57ca 493d 3bca a43f 5ae4 f9ba
00000030: 3941 3e3e b334 44be fed4 19bd eaee 43bd
00000040: 03a9 52bd 6f5b 95bc 3cbf 803f a848 a23e
00000050: ee4c 463e 1cea a7be ba03 3fbf 8a43 52be
00000060: 4ad2 45be e012 033d 341a 813f 1a2d e23e
00000070: 9135 32bf 7a0b 9c3e b005 593f d958 7d3e
00000080: 69fb 4f3f 332a d4be 6330 d7bf 86ba d9be
00000090: e6bf 823f 3a7d 18be 773e 5cbf 7d41 5fbe
000000a0: 704c f43d 6b9c 45be d4de a43f 24c4 a9bd
000000b0: 82dd 86be 7a96 833e d4e3 87be e494 163e
000000c0: 4a81 31be a15e 263c c700 fbbe 8d9c b8be
000000d0: 6628 15be c4b2 0cbd 03e3 ef3f 8f29 c83e
000000e0: 79f0 0cbe d361 a7be fc39 4c3f aee4 a43e
000000f0: d018 20bf 5e19 cc3e 1523 b03f a770 bb3e
00000100: 6689 9cbe 102a c6bd e4e1 d63e fdf8 033d
00000110: c7b4 b3be 9c52 aabd cd2d ae3f 4a15 11bd
00000120: 01a7 9a3e f281 893d 8ff9 0e3f fe5c 203e
00000130: 9ddd 583f c323 c43e 4c0b 8bbf 5c45 113e
00000140: 0a40 a63d 5403 90be 4eb6 1ebf 2e5f 9c3c
00000150: c179 063f e3dd 723e 1a47 b23e 8750 c53d
00000160: f353 413e 11b6 9d3c bd0b 61bf 3f59 2fbe
00000170: 4710 c43e b548 ffbd 2a62 bebf 5ba0 bcbd
00000180: 235f 473f 1d16 523d 0cec 9dbf 9fa4 a5bd
00000190: 17dd 073f f1ec be3e b80c e83f 2eb4 af3e
000001a0: 2575 afbe 99f4 aebe 0c1f 743f adc0 c23c
000001b0: adea d2bd ee2d ec3d 58ce 3a3f 13d7 f03e
000001c0: 696f 7f3e d136 51be 9a05 9c3f 9402 b63e
000001d0: 63e9 1c3f cfe7 643e dc08 a6bf 772f cfbe
000001e0: d600 b0be 7788 593e 420e e03f b3ca 27be
000001f0: ca62 173f 6ce2 b8be 0107 a8bf 93ce 76be
00000200: aa44 2e3e e699 293f bb27 a83f 8591 0c3f
00000210: 3b61 443f 8a18 653f 21be 953f e67c 363f
00000220: 8bc1 0c3f 6507 4c3e 9ee5 5fbf 67c1 3abf
00000230: dec7 4a3e b0ff 4c3c 8f11 51bf 0c4b 8c3e
00000240: 87ab 56be df79 b43d 08b4 b33f 5569 c33d
00000250: 1ef5 7f3e 1786 3c3f 7b00 ab3f ae86 1b3f
00000260: 8813 45be 492b 2cbd 7c02 01bf 913f e8be
00000270: fbad 3cbd 71fb fdbb b2be fe3d 69e6 8abe
00000280: 836d ccbe ad64 513e 175d 353f 1e19 f53e
00000290: b576 72be 77ff afbd fff1 48bf 2f66 ea3d
000002a0: 5e57 05bf 6cf5 25be e840 0e3f 3bfe c3bd
000002b0: 12fb 7cbe 589c 79ba cd5c 993f ae9c 263f
000002c0: f0d7 343d 52db 623c b2bc e53d 5f1b ec3e
000002d0: 0498 ae3e ae5b 1cbe 4b48 a6bf 50e6 a8bd
000002e0: 6f08 4e3d f196 923e 67c9 b3bf 9ae3 7dbe
000002f0: fce4 65be 00a7 f5bd 07c3 a13f 6df2 0dbe
00000300: 13a4 f3bd 87cc de3d 28f8 153f 7d8e 81be
00000310: 227c 673e 473e 2a3e 11bd 8c3e 15fa bfbe
00000320: e255 eb3d 4dc2 b3be 13ec ff3e 13f7 5fbe
00000330: 6338 ad3e c37a 483d 9a6f bfba 4613 9f3d
00000340: 002a 7f3e 0ea0 013f 278d a33f 97be de3e
00000350: 95ba 3fbf 2665 ed3e 5762 d33f 2f12 033f
00000360: e7fa 453f 1c27 9c3e 7612 973f 83ea 8c3e
00000370: dfa4 5cbe 53f2 9c3e 9b82 afbf 3ab9 adbe
00000380: db72 9d3e 90ad 76be d29f 8c3d 700f d43d
00000390: 8be3 263f 1835 bc3e 5701 95bf f979 eebe
000003a0: b3d2 a03f 10eb ad3d efb6 82bf 24ae 673b
000003b0: d97f 5fbe d938 a53e 8079 033e adef edbe
000003c0: ecc3 023f 8814 c73e e116 9e3d 1c19 f63d
000003d0: 62fa 163e bd8c 35be c8cd aabf feb9 f7bd
000003e0: d095 22be 5a03 1d3f b933 473f 993f 89be
000003f0: 7440 7d3e f507 9f3e 9254 8dbe d3b8 12bf

fc1.bias f4 [256]
0.005383644 0.07494691 0.08504701 -0.28345856 -0.39882985 0.056525797 -0.03450108 -0.0061515714
0.2691023 0.105500646 0.07321009 -0.13973606 -0.5367344 0.026149385 -0.42864242 0.10829679
-0.5056937 0.25020513 -0.45492873 0.19469759 0.117524244 0.14412412 0.17536081 0.12201766
0.1020173 -0.0036573499 -0.42269439 -0.4358714 0.29392114 0.09498356 0.21754137 0.081132926
-0.0018382067 -0.0029829263 -0.20174138 0.1634636 0.15081516 -0.0024466992 -0.45440292 -0.1449738
-0.39521128 -0.10748799 -0.012190127 -0.11580236 -0.5247747 0.071276225 0.3772233 0.2921306
-0.4213406 -0.25294635 -0.4706477 -0.4257136 -0.0030952217 0.43852717 -0.0032298549 -0.06428758
-0.115173794 0.1347769 0.25166652 0.07829432 0.17676815 0.10810208 -0.22121178 -0.30491266
-0.29434243 0.3030469 0.17176025 -0.0051639723 -0.35159558 -0.459014 0.34569085 -0.30105326
-0.51939195 -0.13203296 -0.22902301 0.017516652 0.0013139431 0.21200864 -0.56421196 0.12581234
-0.28410956 0.16948065 0.18408898 0.22417483 -0.018942941 0.12317756 -0.43330246 0.011975973
-0.41751507 0.15425089 -0.012039906 0.43265933 -0.35939977 -0.47110257 -0.000580668 -0.050721202
0.31306753 0.34354785 0.24986772 0.16974628 -0.30761015 0.019741902 -0.3467982 0.03134637
-0.28179574 0.20528753 0.2584018 0.31039467 -0.5574337 0.36137593 -0.31409633 -0.000870998
0.40934685 0.27720046 -0.4103894 0.20818621 -0.4988471 0.2948401 0.37854615 -0.24943605
0.012037101 -0.00072897965 -0.28029564 -0.3582284 0.08668631 -0.35789278 -0.22307557 0.103754655
-0.5455554 -0.27874732 -0.011845089 -0.46376392 0.28212819 -0.14888127 -0.34652898 0.05910555
-0.39013192 0.07887446 0.2893309 -0.3203811 -0.14665775 0.3942905 -0.36169708 0.10682545
-0.40738255 -0.5096008 -0.09165495 -0.52049965 0.21507064 -0.15574439 -0.003682084 -0.25216594
0.047812928 0.3598591 -0.0058273985 -0.31924784 -0.6953883 0.22206426 0.08795186 0.18318544
0.05084274 0.19488774 0.058259916 0.1857052 0.24922298 -0.0703721 0.29563412 -0.12695025
-0.0062993984 -0.49931154 0.10998838 0.24135293 0.10177262 -0.14828487 -0.01030514 0.14260559
0.13432422 0.3463735 0.15208757 0.10323255 0.13907671 -0.49488473 -0.15826513 0.0077782017
-0.36443567 -0.55742955 0.3096437 0.14000328 -0.51345205 0.14521924 -0.053475033 0.20502542
0.29614088 -0.08471051 0.1729486 -0.40559113 0.019702682 -0.18153124 0.08157772 0.21832682
0.23519228 -0.38504434 -0.46119347 0.0019906024 -0.2334638 -0.001663418 0.2959282 0.3304765
0.21858643 -0.22439304 0.21031092 -0.13032793 -0.11466913 -0.39711717 0.09177816 0.002220443
0.013755795 -0.24485216 0.12858494 -0.53612036 -0.36867997 -0.20894083 0.29438755 0.25408897
-0.43548355 -0.5123832 0.23211263 0.15305203 0.27830452 -0.5343303 0.15067734 0.20455688
-0.16203238 -0.0016824657 0.20774122 0.17591263 0.18049696 0.037071254 -0.13256478 -0.2730165
0.39321184 -0.19940987 0.22060554 0.31034595 -0.34396657 0.08085203 -0.26887432 -0.014247331
-0.036165513 0.10220919 -0.20743841 -0.286192 -0.49121195 -0.2652034 0.2133972 -0.58953327
00000000: 4769 b03b c47d 993d 202d ae3d 7b21 91be
00000010: 6d33 ccbe 9887 673d 0151 0dbd 1f93 c9bb
00000020: c7c7 893e b910 d83d 2cef 953d f816 0fbe
00000030: 6d67 09bf 3c37 d63c 0577 dbbe b5ca dd3d
00000040: 2475 01bf e31a 803e 6bec e8be ce5e 473e
00000050: 8db0 f03d 4695 133e c991 333e 65e4 f93d
00000060: 72ee d03d 26b0 6fbb 666b d8be 892a dfbe
00000070: d57c 963e be86 c23d 2ac3 5e3e 0529 a63d
00000080: fbef f0ba 337d 43bb 4b95 4ebe 0163 273e
00000090: 4a6f 1a3e cd58 20bb 80a7 e8be 0374 14be
000000a0: 2259 cabe aa22 dcbd 19b9 47bc ca29 edbd
000000b0: a257 06bf 45f9 913d 6a23 c13e 2492 953e
000000c0: f5b9 d7be 2f82 81be bcf8 f0be 22f7 d9be
000000d0: 34d9 4abb a286 e03e f9ab 53bb 35a9 83bd
000000e0: 3de0 ebbd f502 0a3e 6fda 803e c658 a03d
000000f0: b602 353e a064 dd3d 5785 62be 831d 9cbe
00000100: 0db4 96be f728 9b3e ebe1 2f3e 8a36 a9bb
00000110: 5604 b4be e203 ebbe 64fe b03e a723 9abe
00000120: dff6 04bf a633 07be 0285 6abe 157f 8f3c
00000130: 9d38 ac3a cb18 593e 3270 10bf f3d4 003e
00000140: cf76 91be 568c 2d3e d281 3c3e 168e 653e
00000150: 3a2e 9bbc 8444 fc3d d2d9 ddbe df36 443c
00000160: 89c4 d5be f2f3 1d3e 0743 45bc 8685 dd3e
00000170: 3f03 b8be 5b34 f1be f837 18ba 09c1 4fbd
00000180: 634a a03e 81e5 af3e 53dd 7f3e f8d1 2d3e
00000190: 147f 9dbe c5b9 a13c 898f b1be 0d65 003d
000001a0: 8847 90be e536 523e 3e4d 843e 0dec 9e3e
000001b0: fab3 0ebf 4406 b93e 3cd1 a0be b053 64ba
000001c0: e995 d13e 38ed 8d3e 8f1e d2be c42e 553e
000001d0: e368 ffbe 48f5 963e cdd0 c13e 2a6c 7fbe
000001e0: 4337 453c ff18 3fba e982 8fbe b669 b7be
000001f0: 9888 b13d b93d b7be ec6d 64be 527d d43d
00000200: 85a9 0bbf f8b7 8ebe e711 42bc 7772 edbe
00000210: 1b73 903e 5574 18be 3f6c b1be a918 723d
00000220: 5fbf c7be ef88 a13d 2e23 943e fe08 a4be
00000230: 732d 16be 72e0 c93e 5c30 b9be 4dc7 da3d
00000240: 7294 d0be 3375 02bf 97b5 bbbd 773f 05bf
00000250: 7a3b 5c3e 757b 1fbe 1e4f 71bb e51b 81be
00000260: 7dd7 433d 743f b83e c3f3 bebb 7474 a3be
00000270: f804 32bf d064 633e 1b20 b43d f794 3b3e
00000280: 7a40 503d a790 473e f3a1 6e3d 8129 3e3e
00000290: 4f34 7f3e 3f1f 90bd 5b5d 973e 3fff 01be
000002a0: 2f6b cebb c3a5 ffbe 9641 e13d 3925 773e
000002b0: 2a6e d03d fdd7 17be e4d6 28bc 3307 123e
000002c0: 4a8c 093e de57 b13e d8bc 1b3e 966b d33d
000002d0: 206a 0e3e 8861 fdbe 4110 22be 49e0 fe3b
000002e0: 5097 babe b4b3 0ebf 9e89 9e3e 055d 0f3e
000002f0: 9871 03bf 5ab4 143e a308 5bbd 2ff2 513e
00000300: c79f 973e b47c adbd 7019 313e a4a9 cfbe
00000310: 8567 a13c 53e3 39be 3812 a73d 1191 5f3e
00000320: 3fd6 703e 8824 c5be 8d21 ecbe c474 023b
00000330: 2211 6fbe 0c07 daba e783 973e 3734 a93e
00000340: 1fd5 5f3e 4ac7 65be bf5b 573e af74 05be
00000350: a6d7 eabd f152 cbbe 30f6 bb3d da84 113b
00000360: fc5f 613c 86ba 7abe c5ab 033e 2f3f 09bf
00000370: 9fc3 bcbe 96f4 55be f7b9 963e f317 823e
00000380: b3f7 debe 8c2b 03bf efae 6d3e acb9 1c3e
00000390: ee7d 8e3e dfc9 08bf 294b 1a3e 5c77 513e
000003a0: d1eb 25be 2e86 dcba 1dba 543e 7122 343e
000003b0: 32d4 383e 07d8 173d 10bf 07be d2c8 8bbe
000003c0: 1053 c93e 1a32 4cbe 6be6 613e aae5 9e3e
000003d0: 631c b0be c095 a53d e5a9 89be a36d 69bc
000003e0: 4a22 14bd 0d53 d13d bc6a 54be c287 92be
000003f0: 2280 fbbe bdc8 87be cc84 5a3e a7eb 16bf

fc2.weight f4 [256, 256]
-0.005927685 -0.00591328 0.004590396 -0.0035209125 0.026849762 -0.0032785074 0.038629815 0.008020949
-0.008338566 0.004923311 0.03492554 0.009433381 0.04402986 -0.012537915 -0.0084772175 0.046275012
-0.07213389 -0.0010889521 0.05708553 -0.0378176 -0.018873606 -0.010770609 0.015285931 0.01718206
0.014158726 0.018226061 -0.03475841 0.014959459 -0.026809098 0.036089547 -0.022291154 -0.061538227
-0.006246054 0.018187828 -0.0024494976 -0.006093796 -0.0062247748 0.026820462 0.0048902854 -0.06487278
-0.052297506 0.0036943927 -0.012526739 0.052802082 -0.024640093 0.032124907 -0.059224047 -0.066485226
-0.0057493597 -0.039573617 -0.026385035 0.0070399195 -0.054973338 0.036695927 -0.045022894 0.045331005
0.013212685 -0.017076874 -0.06138496 0.0057372125 -0.04172035 0.04207243 -0.052578196 -0.0165096
-0.034444988 -0.046696335 -0.040158447 -0.013280792 0.0042281076 0.0057180673 0.025549302 -0.033133134
-0.03877853 -0.01316867 0.058897592 -0.01932294 -0.059987564 0.0411271 0.014096596 0.009914395
0.010727964 0.036563326 -0.035257433 0.03830083 0.052884802 -0.023359997 0.0394457 0.027396422
0.051276587 -0.025226984 -0.04476522 -0.030644245 -0.04925459 -0.002105556 0.05702719 0.052733634
0.04142687 -0.00083802285 -0.0055766306 0.034839366 0.03711149 -0.019489191 -0.02300252 0.017431535
-0.0021686703 -0.04963444 -0.035177518 0.044406302 0.052050017 -0.03087807 -0.013412401 -0.03709943
-0.027504124 0.050530847 -0.06998476 0.022945847 -0.056174234 -0.03748539 -0.018803291 0.009906233
-0.017086804 -0.036264416 -0.027877256 -0.04572029 -0.05169998 -0.051337935 0.059933104 -0.03642928
-0.051974252 0.032332826 0.01569205 0.034126103 -0.06921007 -0.059492625 -0.051494837 -0.04206204
-0.011314672 0.022120398 0.02939353 -0.053756557 0.017875886 -0.04364001 0.014366254 0.011415603
0.01000198 0.012313928 -0.010767895 0.040969618 0.0066484557 0.04797424 0.006815554 -0.040423013
0.035235878 -0.003263963 0.052779954 -0.017670577 0.06183841 -0.042385146 0.024015408 -0.056983773
0.036255397 0.004611845 0.028106181 -0.0633285 -0.06774095 0.021570314 -0.032214664 0.017730635
-0.043173715 -0.03397688 -0.004356454 0.030125702 0.028276108 -0.008187653 -0.024482915 -0.008307462
0.02526981 -0.0601485 -0.026248375 -0.06695154 0.0012721405 -0.007392697 0.028311847 0.042896684
-0.05896336 -0.037861362 -0.016166417 -0.0071895295 -0.02189277 -0.04613111 -0.032364246 -0.008190921
0.043706357 -0.01592832 0.032665238 -0.05052188 -0.012195713 -0.04877323 -0.05969973 -0.0022574526
-0.03487395 0.039231192 0.03615882 -0.06942024 -0.0043556616 -0.010677412 -0.042850498 -0.05043946
-0.033598993 0.019924708 0.007676626 0.028093206 -0.0037275031 0.024770452 -0.0024052837 -0.020163566
-0.008955758 -0.05684334 -0.008576534 -0.020532228 -0.027977094 -0.03298293 -0.019930327 -0.05366979
0.0036676228 0.002227609 -0.02380347 0.04856357 0.03557691 0.017651223 -0.02994133 0.00093635626
-0.04300329 0.030306138 0.051360358 -0.0151134115 0.041124474 0.052944824 -0.003755346 -0.02320788
-0.0047679525 0.006957614 -0.06449416 -0.012780857 -0.029902322 0.036354046 -0.009227197 0.0337759
0.048405133 -0.027007181 0.0010173168 -0.0053464025 -0.034264743 -0.034670666 -0.006440602 0.023554616
00000000: 073d c2bb 30c4 c1bb 086b 963b 1cbf 66bb
00000010: 08f4 db3c 3adc 56bb 4c3a 1e3d 4c6a 033c
00000020: 7b9e 08bc ba53 a13b 150e 0f3d 788e 1a3c
00000030: a858 343d d46b 4dbc 07e4 0abc de8a 3d3d
00000040: efba 93bd 2bbb 8eba 84d2 693d a1e6 1abd
00000050: d29c 9abc 3577 30bc d771 7a3c 64c1 8c3c
00000060: 00fa 673c d24e 953c d65e 0ebd 8518 753c
00000070: c19e dbbc a2d2 133d f09b b6bc 820f 7cbd
00000080: b3ab ccbb a4fe 943c c087 20bb 77ae c7bb
00000090: 32f9 cbbb 96b6 db3c b03e a03b 05dc 84bd
000000a0: e935 56bd a01d 723b f43c 4dbc ff46 583d
000000b0: 05da c9bc 6895 033d ea94 72bd 6829 88bd
000000c0: 2065 bcbb f217 22bd 6e25 d8bc 20af e63b
000000d0: b92b 61bd 784e 163d ed69 38bd 01ad 393d
000000e0: 047a 583c cde4 8bbc cc6e 7bbd 3aff bb3b
000000f0: f5e2 2abd 2454 2c3d 3c5c 57bd 243f 87bc
00000100: 3016 0dbd a844 3fbd 2f7d 24bd ae97 59bc
00000110: f08b 8a3b a05e bb3b c54c d13c 9cb6 07bd
00000120: 3cd6 1ebd 68c1 57bc 9a3e 713d 244b 9ebc
00000130: 85b5 75bd e474 283d 69f5 663c fd6f 223c
00000140: 58c4 2f3c 6dc3 153d 196a 10bd 55e1 1c3d
00000150: bc9d 583d 775d bfbc d091 213d 766e e03c
00000160: 6607 523d d2a8 cebc bc5b 37bd a409 fbbc
00000170: 2ebf 49bd 5efd 09bb 5895 693d 39ff 573d
00000180: 39af 293d c3ae 5bba 2bbc b6bb b9b3 0e3d
00000190: 3802 183d cca7 9fbc c86f bcbc 94cc 8e3c
000001a0: 4020 0ebb 7c4d 4bbd 4d16 10bd 62e3 353d
000001b0: 6632 553d 02f4 fcbc b0bf 5bbc 92f5 17bd
000001c0: 5450 e1bc 6ff9 4e3d 2b54 8fbd eef8 bb3c
000001d0: f416 66bd 488a 19bd 5c09 9abc c14d 223c
000001e0: a0f9 8bbc ff89 14bd d85e e4bc 3345 3bbd
000001f0: 5cc3 53bd ba47 52bd 6a7c 753d de36 15bd
00000200: f4e2 54bd 6d6f 043d 9d8c 803c d0c7 0b3d
00000210: 02be 8dbd 8aae 73bd 40ec 52bd 3f49 2cbd
00000220: 2d61 39bc d635 b53c b3ca f03c d62f 5cbd
00000230: 7370 923c debf 32bd 7060 6b3c 8208 3b3c
00000240: 58df 233c 5cc0 493c d36b 30bc c2cf 273d
00000250: 4adb d93b a380 443d 0355 df3b 9a92 25bd
00000260: 7f53 103d 36e8 55bb cb2f 583d e3c1 90bc
00000270: 464a 7d3d 0c9c 2dbd f6bb c43c d167 69bd
00000280: 8a80 143d f61e 973b ef3e e63c 5fb2 81bd
00000290: c4bb 8abd 3ab4 b03c 86f3 03bd d63f 913c
000002a0: ecd6 30bd 572b 0bbd 96c0 8ebb 2dca f63c
000002b0: 4ca3 e73c 8125 06bc 6590 c8bc 051c 08bc
000002c0: a202 cf3c 465e 76bd d506 d7bc e41d 89bd
000002d0: f4bd a63a 703e f2bb 3fee e73c 6fb4 2f3d
000002e0: 9083 71bd 8414 1bbd 6f6f 84bc 2596 ebbb
000002f0: 7758 b3bc faf3 3cbd 5f90 04bd 3633 06bc
00000300: 7005 333d 1c7c 82bc fccb 053d 08f0 4ebd
00000310: 87d0 47bc 70c6 47bd b487 74bd c5f1 13bb
00000320: fdd7 0ebd e3b0 203d 451b 143d 332c 8ebd
00000330: f0b9 8ebb 50f0 2ebc 0184 2fbd 9b99 4ebd
00000340: 199f 09bd 2439 a33c 358c fb3b b923 e63c
00000350: 2049 74bb 67eb ca3c f7a1 1dbb 102e a5bc
00000360: 2cbb 12bc 90d4 68bd 9784 0cbc 3433 a8bc
00000370: 3830 e5bc 1c19 07bd ed44 a3bc dbd4 5bbd
00000380: 805c 703b 14fd 113b 7fff c2bc 98ea 463d
00000390: 18b9 113d 4c99 903c 8547 f5bc ce75 753a
000003a0: 3824 30bd 9444 f83c 3d5f 523d 3e9e 77bc
000003b0: 2372 283d acdc 583d 401c 76bb 741e bebc
000003c0: 7c3c 9cbb b2fc e33b 8415 84bd cd66 51bc
000003d0: b7f5 f4bc fbe7 143d ab2d 17bc 9958 0a3d
000003e0: 7644 463d 2a3e ddbc 7d57 853a e030 afbb
000003f0: 3059 0cbd d402 0ebd af0b d3bb 9cf5 c03c

fc2.bias f4 [256]
0.04461408 -0.053484388 -0.0019461052 0.053789146 0.03205611 -0.0112860035 -0.041774064 -0.06632888
-0.029940236 0.045362465 -0.0039016018 -0.11121859 -0.022145713 0.029017445 0.030142345 0.041914567
0.046160404 0.005596526 0.0031033985 0.04399112 -0.020449726 -0.0091682235 -0.0564603 -0.019852832
-0.0052941055 0.019020706 0.02190119 0.035387404 0.07275894 0.049177054 0.034160916 0.012015237
0.058892228 0.039417405 -0.042785745 0.029514994 -0.020401988 -0.014688613 -0.028049244 -0.046710044
0.00327026 3.9879127e-05 -0.042960387 0.015318461 0.032828975 -0.0013052794 -0.0061416826 -0.026817609
0.028928613 0.030421313 -0.035493236 -0.07642226 0.024439227 -0.025911193 -0.04519296 -0.038971983
0.010824997 0.045737717 -0.004595215 -0.0010850255 -0.021932552 -0.039765544 -0.01862921 0.025073284
-0.11082481 -0.019200968 0.014294757 -0.0047638123 -0.030703323 0.04375808 -0.035186715 -0.06269124
-0.033336587 -0.04846805 -0.046600096 -0.030729737 -0.009143782 -0.046102546 0.01710411 0.0436793
-0.064579174 0.00287268 -0.042969454 -0.053867493 0.014410703 -0.06240704 -0.08181845 -0.0032430983
0.012800548 -0.03389104 0.050125133 -0.024962926 0.011091302 0.04252154 0.0406184 0.03114735
-0.028436648 0.009041778 0.06572789 0.0033624507 0.009079246 -0.017637141 -0.10923313 -0.00962089
-0.056476522 0.04959763 0.046582907 0.00067859143 0.0113308495 -0.041448966 -0.13855925 -0.022433808
-0.018247968 0.048776258 -0.042950206 0.033150796 0.04203731 -0.05449199 0.012606596 -0.005218693
0.034454927 -0.06382787 -0.020454532 -0.059494596 -0.020453833 -0.0042323233 -0.06767907 -0.00040775066
-0.028522745 0.051965956 -0.034447193 -0.027290596 0.066333614 0.033935368 0.035336375 -0.017714314
-0.038812265 -0.055866543 -0.05378756 -0.026612822 0.05442017 -0.0076703685 -0.021337638 0.008823268
-0.058487665 -0.03170897 0.032074377 0.04701799 -0.012509877 0.0075094975 -0.050693918 0.0154027175
0.06161533 0.039462157 0.014001474 -0.026729811 0.055116605 -0.0071351724 -0.071641795 0.035408333
-0.040413275 0.055628162 0.026922317 -0.03213419 -0.0059419614 -0.027315872 0.021371376 0.02473207
0.06935638 -0.047026828 0.048050363 0.04863394 0.052143134 0.010140076 -0.0045511136 0.03854756
-0.07561976 0.0022990091 0.00925203 -0.06249766 -0.050462212 -0.020780649 -0.10815361 0.05010066
0.017600821 -0.021981906 -0.008802866 -0.08203293 -0.022180859 0.030600937 -0.016291512 -0.0022662093
-0.009608057 -0.002011098 0.0034912305 0.0029007932 0.00226304 0.05551033 0.0069361078 0.072544985
0.0026259583 0.07559563 0.02847181 -0.038001984 -0.03303727 -0.04519293 0.040335502 0.06646349
-0.02587477 -0.049765605 -0.04817957 -0.043967657 0.058014233 0.04060726 -0.030714536 -0.014762717
0.010300952 -0.011924065 0.065679856 -0.031848606 -0.033021856 -0.05252281 -0.05312932 -0.011602267
-0.06837438 -0.06670089 -0.0041620955 -0.0091337785 0.032055225 -0.05764687 0.054356635 -0.0095645385
0.013467062 0.018320397 0.03649801 -0.0034062443 -0.06276903 0.054416317 -0.018429328 0.024516191
-0.0315539 0.034360316 0.019369373 0.037291173 -0.08190384 0.056631133 -0.0053623687 -0.02796994
0.0054797786 0.073532306 0.002946733 -0.028717123 -0.03240662 -0.07217133 -0.06234644 0.034729414
00000000: 41bd 363d 7212 5bbd 7414 ffba 0252 5c3d
00000010: 454d 033d eee8 38bc 481b 2bbd 70d7 87bd
00000020: 3a45 f5bc fecd 393d 04b2 7fbb 92c6 e3bd
00000030: ed6a b5bc feb5 ed3c 14ed f63c 9cae 2b3d
00000040: b112 3d3d 1063 b73b 6362 4b3b 0830 343d
00000050: 2f86 a7bc 5136 16bc ea42 67bd 68a2 a2bc
00000060: 2d7a adbb 50d1 9b3c 206a b33c 62f2 103d
00000070: a402 953d e16d 493d 51ec 0b3d 8edb 443c
00000080: fa38 713d 2574 213d 1b40 2fbd 6ec9 f13c
00000090: 1222 a7bc 82a8 70bc 87c7 e5bc 0853 3fbd
000000a0: dc51 563b e343 2738 3bf7 2fbd 48fa 7a3c
000000b0: ad77 063d e915 abba 2b40 c9bb 9ab0 dbbc
000000c0: b3fb ec3c 1e36 f93c 5b61 11bd 4683 9cbd
000000d0: c634 c83c b643 d4bc 411c 39bd 16a1 1fbd
000000e0: 545b 313c 7957 3b3d 7593 96bb 6a37 8eba
000000f0: e5ab b3bc 32e1 22bd 499c 98bc 7d66 cd3c
00000100: 1ef8 e2bd 594b 9dbc 8e34 6a3c c119 9cbb
00000110: 8985 fbbc ac3b 333d f21f 10bd 4464 80bd
00000120: f28b 08bd 6f86 46bd bedf 3ebd eebc fbbc
00000130: cdcf 15bc 06d6 3cbd eb1d 8c3c 11e9 323d
00000140: 1642 84bd 9343 3c3b bd00 30bd 29a4 5cbd
00000150: df1a 6c3c 869e 7fbd 6e90 a7bd 298a 54bb
00000160: 64b9 513c 55d1 0abd 0350 4d3d 0d7f ccbc
00000170: 4bb8 353c 112b 2e3d 7b5f 263d ba28 ff3c
00000180: f9f3 e8bc f723 143c 589c 863d 905c 5c3b
00000190: 1ec1 143c c47b 90bc 9fb5 dfbd f0a0 1dbc
000001a0: ed53 67bd e226 4b3d b8cd 3e3d 80e3 313a
000001b0: 07a5 393c 64c6 29bd 7ae2 0dbe 1bc7 b7bc
000001c0: c37c 95bc 9dc9 473d 8eec 2fbd 21c9 073d
000001d0: 502f 2c3d fe32 5fbd e58b 4e3c 9201 abbb
000001e0: 9c20 0d3d 30b8 82bd 4390 a7bc 9bb0 73bd
000001f0: cc8e a7bc 4daf 8abb 539b 8abd 5ec7 d5b9
00000200: 88a8 e9bc 41da 543d 8018 0dbd 8790 dfbc
00000210: ebd9 873d d0ff 0a3d e0bc 103d 9c1d 91bc
00000220: 9cf9 1ebd 51d4 64bd 5850 5cbd 2203 dabc
00000230: afe7 5e3d b757 fbbb 45cc aebc 788f 103c
00000240: c390 6fbd 44e1 01bd 6c60 033d f095 403d
00000250: 3af6 4cbc 3b12 f63b 6da4 4fbd ae5b 7c3c
00000260: 5b60 7c3d 12a3 213d 7066 653c 7af8 dabc
00000270: f3c1 613d 2ace e9bb efb8 92bd 5408 113d
00000280: 6488 25bd 5bda 633d 318c dc3c 249f 03bd
00000290: c9b4 c2bb 89c5 dfbc 0613 af3c e99a ca3c
000002a0: b80a 8e3d 349f 40bd 75d0 443d 6234 473d
000002b0: 0a94 553d 9022 263c 8221 95bb 0ce4 1d3d
000002c0: 88de 9abd f9aa 163b d495 173c 8cfd 7fbd
000002d0: 77b1 4ebd 2e3c aabc a47f ddbd 5a36 4d3d
000002e0: 992f 903c 6613 b4bc e539 10bc e100 a8bd
000002f0: a2b4 b5bc d1ae fa3c c775 85bc af84 14bb
00000300: 1d6b 1dbc a0cc 03bb 21cd 643b 3c1b 3e3b
00000310: 834f 143b cd5e 633d 4a48 e33b 7792 943d
00000320: 4518 2c3b e2d1 9a3d b73d e93c f8a7 1bbd
00000330: 1752 07bd 391c 39bd d736 253d 031e 883d
00000340: 53f7 d3bc 05d7 4bbd f157 45bd 6e17 34bd
00000350: 55a0 6d3d cc53 263d 0d9d fbbc 53df 71bc
00000360: 53c5 283c 275d 43bc 2983 863d af73 02bd
00000370: ed41 07bd 2822 57bd 219e 59bd 6f17 3ebc
00000380: de07 8cbd 7a9a 88bd 3062 88bb d8a5 15bc
00000390: 574c 033d 201f 6cbd 10a5 5e3d 95b4 1cbc
000003a0: f4a4 5c3c a814 963c f07e 153d 4c3b 5fbb
000003b0: 0d8d 80bd a5e3 5e3d 1af9 96bc 2ed6 c83c
000003c0: aa3e 01bd 67bd 0c3d 85ac 9e3c a1be 183d
000003d0: 33bd a7bd 0cf6 673d cfb6 afbb 3721 e5bc
000003e0: b78f b33b 1b98 963d fa1d 413b 2c40 ebbc
000003f0: cebc 04bd 90ce 93bd fb5e 7fbd 6e40 0e3d

fc3.weight f4 [2, 256]
0.04881946 -0.018209804 -0.049415197 0.04969759 -0.020188566 -0.029382817 0.04357648 -0.003397693
-0.0065012933 -0.04371849 -0.027129617 0.1718628 0.027561735 -0.40115294 0.40867883 0.047655594
0.011587575 -0.18455398 -0.028712936 0.32339758 0.040168636 -9.598339e-05 -0.010268236 0.0010736356
0.03639647 0.020907134 0.061346024 0.031577807 0.15887593 -0.029360866 -0.00911357 -0.2551913
0.27227327 0.23252034 0.10271709 -0.026263466 -0.03210812 0.014693371 -0.025424471 0.023272002
-0.013784823 -0.011502058 0.047974203 0.026551984 0.048770055 -0.3646077 -0.029318983 -0.027370535
0.030391261 0.026092647 -0.4324097 -0.029499268 0.26004794 -0.010371958 -0.049285147 -0.0090007065
0.026093842 -0.037039407 -0.34421322 0.28120133 -0.032583598 -0.008618023 0.0050955396 0.3823406
0.35349277 0.03330959 0.0077684056 -0.00821335 0.15302266 0.008514561 0.05095461 0.005610627
-0.035925426 -0.036014814 0.021457478 -0.04190298 0.004000007 0.009047869 -0.009838153 0.03756242
0.032804307 0.008328111 0.04075439 -0.014792686 -0.044735886 0.0031590634 0.0579199 0.015123292
-0.20522496 -0.046659205 -0.030170329 -0.0057752095 0.0380451 0.2938312 -0.0027290732 -0.037072334
-0.034176245 -0.033788167 0.26689273 -0.01882331 -0.025317583 -0.034754448 0.28022093 0.055382423
-0.024846017 -0.0010316365 -0.03628042 -0.04205489 -0.17305958 0.020796774 0.43158457 -0.0047279946
-0.021471027 0.0053376616 0.032504898 -0.036761265 -0.32906803 -0.029790891 -0.0099032605 0.31455517
0.030092489 0.0016964261 0.059824776 -0.054511026 0.02437914 0.05489908 -0.0051904554 -0.21854684
0.04075754 -0.019639652 -0.03536112 0.012105438 -0.38561517 -0.03454216 0.03603914 -0.009351371
0.04065333 -0.043084398 0.047497224 -0.002904578 0.02866782 -0.029197982 -0.0041051907 -0.04221846
0.26182023 -0.015970046 0.030275092 0.2500009 -0.03892817 -0.012256119 -0.026747191 0.32786095
-0.52705425 0.27541655 0.33976915 0.017557291 -0.28280413 0.02370653 0.009602631 0.055054575
-0.02682322 0.22731976 0.0046537244 0.0049539497 0.047061056 0.010766823 0.018118996 0.5534507
-0.3004339 0.0066834535 -0.021758486 0.36548537 -0.008158988 -0.042164207 0.010524622 0.011648348
0.013924071 0.032288205 0.013344013 0.020109445 0.03944474 0.0052000587 0.08422868 0.018364653
-0.008032301 -0.063228525 -0.024829166 0.012026534 -0.05098822 -0.041775692 -0.01470745 0.01598408
0.05187822 -0.001978008 0.033320405 0.0338137 -0.036649365 -0.0067717885 0.01869406 0.24857053
0.34410354 0.3613817 0.013238208 -0.047054235 0.0014045521 0.051030684 -0.19660665 -0.32356918
0.23682672 -0.023853388 -0.029114133 -0.015511791 -0.2705702 0.053137958 0.052179284 -0.022637952
-0.005984528 0.2757371 0.21191153 0.025063636 -0.015200691 -0.00865587 -0.026404276 -0.0464583
0.017929755 0.0059045986 0.058208507 0.33191434 -0.0042200717 0.002838253 0.0011682138 0.020698799
-0.031753525 0.35941687 0.23549232 0.040520616 -0.049630202 0.052089874 -0.01800116 0.02098279
-0.026038116 0.14384608 -0.028629739 -0.051516633 -0.010895605 -0.043215368 -0.017299425 -0.051159557
0.04912621 -0.15878585 0.035520703 0.017865544 -0.008971117 0.024073053 0.059270736 0.4790765
00000000: eaf6 473d ba2c 95bc 9767 4abd b38f 4b3d
00000010: 7e62 a5bc 3cb4 f0bc 407d 323d d4ab 5ebb
00000020: cd08 d5bb 2912 33bd ee3e debc cdfc 2f3e
00000030: 26c9 e13c eb63 cdbe 5a3e d13e 8332 433d
00000040: d0d9 3d3c b8fb 3cbe 6437 ebbc 5e94 a53e
00000050: de87 243d b14a c9b8 1a3c 28bc 3cb9 8c3a
00000060: 7714 153d 7045 ab3c f845 7b3d bb57 013d
00000070: 5fb0 223e 3386 f0bc 1551 15bc 6fa8 82be
00000080: 6767 8b3e d019 6e3e 565d d23d 7b26 d7bc
00000090: ce83 03bd 77bc 703c fb46 d0bc eda4 be3c
000000a0: bdd9 61bc 2173 3cbc 9980 443d 8c83 d93c
000000b0: 1cc3 473d dcad babe 5d2e f0bc 2c38 e0bc
000000c0: 18f7 f83c 3fc0 d53c ce64 ddbe 73a8 f1bc
000000d0: 0125 853e 25ef 29bc 39df 49bd b377 13bc
000000e0: c1c2 d53c a2b6 17bd b73c b0be 9ff9 8f3e
000000f0: 6176 05bd 9c32 0dbc 7cf8 a63b 26c2 c33e
00000100: 01fd b43e a36f 083d 1c8e fe3b 4991 06bc
00000110: f9b1 1c3e a880 0b3c c8b5 503d 5ad9 b73b
00000120: 8a26 13bd 4584 13bd 98c7 af3c 76a2 2bbd
00000130: 7e12 833b 833d 143c 3430 21bc 0ddb 193d
00000140: cf5d 063d a172 083c 13ee 263d 065d 72bc
00000150: fa3c 37bd 4a08 4f3b 6b3d 6d3d afc7 773c
00000160: 7e26 52be b91d 3fbd c427 f7bc f83d bdbb
00000170: 2ed5 1b3d 0b71 963e 40da 32bb 29d9 17bd
00000180: 64fc 0bbd 7665 0abd 2aa6 883e 5833 9abc
00000190: d266 cfbc ae5a 0ebd 1e79 8f3e aed8 623d
000001a0: e089 cbbc fa37 87ba c79a 14bd c041 2cbd
000001b0: 8836 31be ff5d aa3c a7f8 dc3e 4bed 9abb
000001c0: 02e4 afbc 8de7 ae3b db23 053d fb92 16bd
000001d0: 9b7b a8be 070c f4bc 4941 22bc 600d a13e
000001e0: 8684 f63c 9d5a de3a d30a 753d f446 5fbd
000001f0: c3b6 c73c dcdd 603d b214 aabb beca 5fbe
00000200: 61f1 263d 56e3 a0bc d2d6 10bd e355 463c
00000210: 5a6f c5be 147c 0dbd c79d 133d 7e36 19bc
00000220: 1b84 263d 4479 30bd 738c 423d bc5a 3ebb
00000230: c7d8 ea3c 9b30 efbc d684 86bb 44ed 2cbd
00000240: 4d0d 863e 9dd3 82bc 7803 f83c 1e00 803e
00000250: 2573 1fbd e4cd 48bc ed1c dbbc 64dd a73e
00000260: 07ed 06bf 6603 8d3e 39f6 ad3e 4fd4 8f3c
00000270: b4cb 90be 3234 c23c 5b54 1d3c e880 613d
00000280: 5fbc dbbc 83c6 683e 457e 983b be54 a23b
00000290: 18c3 403d 5467 303c 4a6e 943c f2ae 0d3f
000002a0: 79d2 99be df00 db3b da3e b2bc e620 bb3e
000002b0: 47ad 05bc 60b4 2cbd 776f 2c3c b6d8 3e3c
000002c0: c921 643c a340 043d d9a0 5a3c 90bc a43c
000002d0: cf90 213d 4165 aa3b 1680 ac3d 7871 963c
000002e0: ea99 03bc f57d 81bd 8966 cbbc f10a 453c
000002f0: 06d9 50bd fd1c 2bbd 84f7 70bc 0cf1 823c
00000300: 427e 543d 78a1 01bb fa7a 083d 3c80 0a3d
00000310: a51d 16bd e1e5 ddbb 4924 993c 4689 7e3e
00000320: 572e b03e 0607 b93e 12e5 583c f1bb 40bd
00000330: f318 b83a 8d05 513d 4153 49be dcaa a5be
00000340: b482 723e 2e68 c3bc c380 eebc 2b25 7ebc
00000350: 2d88 8abe 30a7 593d f2b9 553d 3a73 b9bc
00000360: dc19 c4bb 6a2d 8d3e 56ff 583e 4152 cd3c
00000370: 520c 79bc 5ad1 0dbc c84d d8bc 0f4b 3ebd
00000380: 6ce1 923c 5d7b c13b 0b6c 6e3d adf0 a93e
00000390: 8748 8abb fc01 3a3b c01e 993a 8790 a93c
000003a0: fc0f 02bd 7d05 b83e e624 713e f2f8 253d
000003b0: 0a49 4bbd 315c 553d 2b77 93bc 1ae4 ab3c
000003c0: e34d d5bc 634c 133e ea88 eabc 1b03 53bd
000003d0: 7b83 32bc 9902 31bd 86b7 8dbc af8c 51bd
000003e0: 9138 493d c298 22be 287e 113d c35a 923c
000003f0: 98fb 12bc da34 c53c dfc5 723d 8449 f53e

fc3.bias f4 [2]
-0.018116556 -0.010625259
00000000: 2c69 94bc 9115 2ebc
