CQL-SAC/trained_models/CQL-SACCQL-DQN0.pth (torch, 271631 bytes, 6 tensors)

fc1.weight f4 [256, 3]
0.3242794 -0.56254107 -0.14860569 0.16439725 -0.5596158 0.25217205 0.08400537 0.26747856
0.106117174 -0.2427347 0.031173177 0.036292095 0.2108646 -0.22499397 -0.042093873 -0.28588745
0.040960316 0.00068720273 0.38410032 0.1758338 -0.15143178 -0.18691522 -0.66306984 -0.26525804
-0.052897867 0.26268578 0.3426146 0.44213325 -0.5962397 0.30147636 0.49673823 1.0082946
0.24762122 -0.43820158 -0.9247323 -0.22150984 0.6167419 -0.19526699 0.16953379 -0.27294138
0.21662569 -0.21467216 0.5128884 0.029485103 -0.24849594 0.24994874 -0.3614467 0.14198464
-0.28613138 -0.25343508 -0.48138538 -0.59076214 0.14972763 -0.1399298 0.6551386 0.5000329
0.005190319 -0.44027287 0.60810584 0.16499574 -0.37690723 0.77449745 0.18992443 0.49654004
-0.19753967 -0.09762732 -0.21782306 0.08817101 -0.3571378 -0.5885847 0.37887862 -0.03708558
0.38551438 -0.112629525 0.17575458 0.23328145 0.38645166 0.10400829 -0.64158136 0.206167
-0.34958443 -0.8821764 0.08269943 -0.0010712955 0.26782256 -0.44650245 -0.3406695 0.50203264
-0.4124577 0.2619331 0.24116485 -0.37290817 0.1384901 0.43607053 -0.6970521 -0.19373
-0.021211596 -0.020299109 -0.10651057 -0.26879007 0.6327767 -0.105436854 0.13114597 0.049832903
-0.29672864 -0.64493656 0.3427592 0.100734524 0.45905688 0.51706845 0.16149157 0.41147777
0.5943727 -0.34037846 0.08974663 0.73617506 0.33179566 0.12144474 -0.45955595 -0.237612
-0.5583647 0.5231479 0.54594177 -0.44881287 -0.16036429 -0.41053107 -0.6920997 0.1263667
0.21639696 0.5785598 -0.544036 0.22377184 0.53708655 0.34450775 0.29279944 0.4358875
0.6010353 0.15713102 -0.24101488 -0.70916414 -0.24489596 -0.06107986 -0.31243068 0.14749937
0.12838414 0.083165854 0.1408962 0.17958893 0.5736799 0.17001975 -0.2825148 0.5554487
-0.0556761 0.038861156 -1.0285764 -0.20757267 -0.47441807 -0.10067503 0.28239205 -0.27224472
-0.4399432 0.13093345 -0.052613366 0.34207824 -0.27220237 0.0073312954 -0.24734992 -0.0020580036
-0.35895845 -0.61873037 -0.13970938 0.42309842 0.53874236 0.15573746 0.67026174 0.7027179
0.32481268 -0.051780414 -0.21325286 0.32572237 -0.4299376 -0.4303533 -0.2805634 -0.32039216
-0.07052899 0.5021673 -0.79812825 -0.5084905 -0.07923356 -0.38373882 0.10484511 -0.06381951
-0.26640785 0.24593392 0.37609428 -0.43473446 0.72932035 0.33848417 0.6011091 -0.44865847
0.05658305 -0.570926 -0.028585598 -0.18160637 0.27380925 -0.010536356 0.021810135 0.46496397
0.0968909 0.17262472 -0.20928082 0.04331679 -0.4251575 0.37590662 0.6865937 0.36902028
0.38921607 -0.4177246 -0.11361064 0.4562951 -0.5223003 0.4624379 -0.5803396 -0.08672931
0.2916998 -0.44978946 0.15666123 0.3906492 0.44526267 0.55635226 -0.14347 -0.648545
0.30193466 -0.18643194 -0.5506178 -0.06485025 -0.39698347 0.414011 0.16768727 -0.31275284
-0.38691136 0.21380052 0.28281477 -0.16541316 -0.3107545 0.03971185 -0.5167324 -0.92457926
-0.42251202 0.5262122 0.5624805 -0.15754849 0.41722766 0.54116464 0.15714496 -0.02118545
00000000: f307 a63e b102 10bf 172c 18be c157 283e
00000010: fb42 0fbf b21c 813e 020b ac3d f3f2 883e
00000020: f653 d93d 728f 78be e45e ff3c 05a7 143d
00000030: e4ec 573e d264 66be a06a 2cbd d75f 92be
00000040: 01c6 273d 6525 343a cca8 c43e c70d 343e
00000050: ef10 1bbe b466 3fbe f2be 29bf e7cf 87be
00000060: 6fab 58bd c07e 863e 2e6b af3e 4a5f e23e
00000070: 2aa3 18bf 1c5b 9a3e 7954 fe3e cc0f 813f
00000080: 6b90 7d3e f55b e0be 42bb 6cbf 7ad3 62be
00000090: cce2 1d3f 12f4 47be 449a 2d3e f9be 8bbe
000000a0: 20d3 5d3e 05d3 5bbe a74c 033f be8a f13c
000000b0: b875 7ebe 90f2 7f3e 8b0f b9be 6c64 113e
000000c0: d07f 92be 3ec2 81be 2578 f6be 303c 17bf
000000d0: 3352 193e c249 0fbe 2ab7 273f 2802 003f
000000e0: 8d13 aa3b 726b e1be d3ac 1b3f a5f4 283e
000000f0: fcf9 c0be 7745 463f 8d7b 423e 7f3a fe3e
00000100: d747 4abe d5f0 c7bd 020d 5fbe 0193 b43d
00000110: c4da b6be 7dad 16bf 61fc c13e 0de7 17bd
00000120: 2462 c53e 4faa e6bd 02f9 333e 55e1 6e3e
00000130: fedc c53e 4c02 d53d ad3e 24bf 711d 533e
00000140: bbfc b2be 50d6 61bf 525e a93d b66a 8cba
00000150: 0a20 893e f89b e4be 3c6c aebe 3685 003f
00000160: a82d d3be 181c 863e ebf3 763e d2ed bebe
00000170: 59d0 0d3e a344 df3e 0272 32bf 2861 46be
00000180: f1c3 adbc 514a a6bc 3722 dabd da9e 89be
00000190: a7fd 213f 47ef d7bd 214b 063e 961d 4c3d
000001a0: d1ec 97be 901a 25bf 227e af3e e74d ce3d
000001b0: 8109 eb3e 995e 043f 0c5e 253e 37ad d23e
000001c0: cf28 183f 1646 aebe 15cd b73d f875 3c3f
000001d0: 1fe1 a93e 05b8 f83d eb4a ebbe 8f50 73be
000001e0: fdf0 0ebf 05ed 053f d7c2 0b3f cdca e5be
000001f0: 8936 24be 2131 d2be 722d 31bf 4666 013e
00000200: 2a97 5d3e 7f1c 143f f145 0bbf 7224 653e
00000210: 817e 093f 5263 b03e cfe9 953e a52c df3e
00000220: 73dd 193f f4e6 203e 9bcc 76be c88b 35bf
00000230: 02c6 7abe e02e 7abd eaf6 9fbe 130a 173e
00000240: 2277 033e dc52 aa3d 1847 103e 29e6 373e
00000250: b0dc 123f a819 2e3e c8a5 90be e331 0e3f
00000260: 9f0c 64bd e02c 1f3d 64a8 83bf ee8d 54be
00000270: ede6 f2be b62e cebd b195 903e a963 8bbe
00000280: 3c40 e1be 6b13 063e 1d81 57bd e124 af3e
00000290: 1c5e 8bbe 5d3b f03b 4c49 7dbe 92df 06bb
000002a0: 67c9 b7be 1d65 1ebf fa0f 0fbe 5ba0 d83e
000002b0: 05eb 093f a479 1f3e 4696 2b3f 52e5 333f
000002c0: d94d a63e b317 54bd f55e 5abe 15c5 a63e
000002d0: c820 dcbe 4557 dcbe 02a6 8fbe 710a a4be
000002e0: 8171 90bd 098e 003f 2252 4cbf 6f2c 02bf
000002f0: 3445 a2bd 6a79 c4be 08b9 d63d ceb3 82bd
00000300: 9c66 88be 1ad6 7b3e 6e8f c03e 8495 debe
00000310: bdb4 3a3f cc4d ad3e 49e2 193f 90b6 e5be
00000320: a1c3 673d 3528 12bf 582c eabc 05f7 39be
00000330: ba30 8c3e aea0 2cbc 2bab b23c c20f ee3e
00000340: bc6e c63d 89c4 303e b64d 56be f26c 313d
00000350: 3eae d9be d576 c03e 9bc4 2f3f 3af0 bc3e
00000360: 5447 c73e 00e0 d5be b2ac e8bd 839f e93e
00000370: 79b5 05bf a9c4 ec3e 2391 14bf 239f b1bd
00000380: ad59 953e ce4a e6be cd6b 203e 2c03 c83e
00000390: 78f9 e33e 1a6d 0e3f cde9 12be 0c07 26bf
000003a0: 2e97 9a3e 04e8 3ebe 4af5 0cbf 35d0 84bd
000003b0: 6b41 cbbe 40f9 d33e 36b6 2b3e 2421 a0be
000003c0: 3f19 c6be 86ee 5a3e 19cd 903e 1162 29be
000003d0: 371b 9fbe e5a8 223d 9348 04bf 3ab1 6cbf
000003e0: 7f53 d8be d8b5 063f b9fe 0f3f 6454 21be
000003f0: dd9e d53e c489 0a3f 9cea 203e 1c8d adbc

fc1.bias f4 [256]
-0.29043716 0.11770093 -0.6017617 0.19976301 -0.52638483 0.28303412 0.3113087 -0.1619277
0.059433833 -0.47017774 -0.38246754 -0.24018785 -0.4431336 0.11517878 -0.2579684 -0.10127469
-0.4687141 -0.4316554 -0.48210174 -0.34848768 0.43832973 0.028708816 -0.79946655 0.17977476
-0.0072985324 0.11286695 0.41358674 0.16739388 0.24393399 -0.35424128 -0.060752604 -0.41142213
0.00047320826 0.38797867 0.19020483 0.6032591 -0.40431273 -0.35770488 0.026998302 0.17965381
-0.45534527 -0.30506667 -0.03685065 -0.279398 0.006661064 -0.29179588 -0.16462559 0.21618927
0.1380462 0.32222262 0.29722688 0.0201209 0.3305836 0.44829026 -0.5096904 0.05819992
0.2862356 -0.35226506 -0.33980474 -0.2900657 -0.4143463 -0.31061104 0.2679252 0.3500205
-0.1033413 -0.42220116 0.1644184 -0.303551 0.29822648 -0.8236247 -0.14098103 0.30379114
0.007640377 -0.38727024 -0.56671965 -0.22998765 0.092401 -0.5918895 -0.4093198 -0.14974563
-0.22154836 0.26865852 -0.47875732 -0.16080801 -0.36055148 -0.13639492 -0.27025598 -0.054926388
-0.49180308 -0.49632305 -0.38814306 -0.62636256 0.39456165 -0.24410497 -0.5135115 0.27928331
-0.23490676 0.39020863 -0.20345 -0.6260206 -0.05007157 0.23664947 -0.5110376 -0.104563385
0.046348836 -0.110322505 -0.16862221 -0.14874993 -0.799007 -0.057016246 -0.48694453 -0.49736625
-0.2459353 -0.46010405 0.19622225 0.24056415 0.3972603 -0.56993264 0.23574294 0.21186441
0.017289186 0.21495084 0.46667325 0.33646435 0.13178225 -0.019639138 -0.42421976 -0.48649555
-0.35667405 0.16178997 -0.16926949 0.01390656 -0.6567907 -0.18189216 -0.13069865 -0.44983312
0.18622623 -0.6199997 -0.13972165 -0.19894265 -0.59191054 0.07663071 -0.07724708 0.010230561
0.020264987 0.61941093 -0.040647537 0.2472497 0.3199444 -0.07924584 0.06629482 -0.10173585
0.074926764 0.11401545 -0.56330925 0.22721195 0.06643276 -0.49182624 0.0352974 0.096868895
0.11589125 0.35346502 0.20871319 -0.66228586 -0.06417574 0.29999137 -0.28019163 0.42583755
0.124277145 -0.12224537 -0.093022965 0.038473353 -0.2157223 0.20562014 0.13574688 0.51837397
0.5271262 -0.1933329 -0.5145461 -0.12025617 -0.33655462 0.10679522 0.32716846 -0.57498646
-0.12856579 0.3515819 -0.11948386 -0.14047128 0.39553365 0.47010133 -0.057277128 -0.10357939
-0.16509658 -0.74454683 -0.7755405 -0.5654758 0.35293874 0.21968052 0.21182105 -0.12824123
0.2610645 -0.17197186 0.13633554 -0.22511159 -0.3171153 -0.32461834 -0.26968986 -0.7146262
0.064166084 -0.29064828 0.114650756 0.4410563 0.016221257 0.2854833 -0.048272297 0.31723005
-0.34344503 -0.15623517 -0.14052725 0.2757839 -0.6092699 -0.37508327 -0.0951046 0.4976038
0.43425912 -0.7980552 -0.54947567 0.33348992 0.09708271 -0.48193714 -0.31341058 0.18554312
-0.27736035 -0.5861546 -0.44157457 -0.3101826 -0.1813732 0.07484047 0.479143 -0.526838
-0.3277321 -0.4190287 0.24060607 0.35668504 0.4451752 0.0025105432 -0.23027173 -0.079656765
0.20755538 -0.47973534 -0.18074574 -0.367765 -0.6821927 -0.04527411 -0.39849085 -0.58598244
00000000: 2eb4 94be 2f0d f13d 0e0d 1abf ad8e 4c3e
00000010: 28c1 06bf d9e9 903e db63 9f3e 60d0 25be
00000020: e470 733d 23bb f0be c9d2 c3be cef3 75be
00000030: 68e2 e2be dae2 eb3d 6f14 84be 1b69 cfbd
00000040: 4bfb efbe f001 ddbe 0ad6 f6be fa6c b2be
00000050: c16c e03e c02e eb3c d7a9 4cbf e016 383e
00000060: 8728 efbb ca26 e73d a4c1 d33e 4d69 2b3e
00000070: d5c9 793e 1d5f b5be b9d7 78bd eca5 d2be
00000080: f018 f839 24a5 c63e 0ec5 423e 306f 1a3f
00000090: 1402 cfbe 1825 b7be 8b2b dd3c 2bf7 373e
000000a0: 0423 e9be b331 9cbe b5f0 16bd 410d 8fbe
000000b0: 0e45 da3b 4566 95be 9c93 28be b860 5d3e
000000c0: fc5b 0d3e 5dfa a43e 1f2e 983e 96d4 a43c
000000d0: 4142 a93e 4d86 e53e 127b 02bf 0a63 6e3d
000000e0: 798d 923e 165c b4be e3fa adbe 7e83 94be
000000f0: 3325 d4be 6908 9fbe 7e2d 893e e335 b33e
00000100: 9aa4 d3bd c02a d8be 4c5d 283e 096b 9bbe
00000110: 24b1 983e 11d9 52bf 555d 10be 838a 9b3e
00000120: 215c fa3b 4948 c6be 8a14 11bf e281 6bbe
00000130: bc3c bd3d 1286 17bf 5d92 d1be eb56 19be
00000140: 93dd 62be 9c8d 893e ae1f f5be dbaa 24be
00000150: 349a b8be 1cab 0bbe fe5e 8abe 7efa 60bd
00000160: 9dcd fbbe 0e1e febe b0ba c6be 4c59 20bf
00000170: fc03 ca3e a7f6 79be 7d75 03bf 39fe 8e3e
00000180: 668b 70be 6dc9 c73e 3255 50be e342 20bf
00000190: d917 4dbd 3d54 723e 5cd3 02bf 5425 d6bd
000001a0: 47d8 3d3d c4f0 e1bd 4dab 2cbe e751 18be
000001b0: b98b 4cbf de89 69bd cb50 f9be caa6 febe
000001c0: 77d6 7bbe c292 ebbe 7cee 483e 7356 763e
000001d0: b465 cb3e 1be7 11bf 9966 713e fcf2 583e
000001e0: 0da2 8d3c 131c 5c3e ccef ee3e 0e45 ac3e
000001f0: edf1 063e 42e2 a0bc 5533 d9be f215 f9be
00000200: fb9d b6be 45ac 253e fb54 2dbe 57d8 633c
00000210: 6f23 28bf f041 3abe ded5 05be 8750 e6be
00000220: 17b2 3e3e 4db8 1ebf 3113 0fbe 9fb7 4bbe
00000230: 7387 17bf 90f0 9c3d b833 9ebd 159e 273c
00000240: c202 a63c b791 1e3f 087e 26bd 062f 7d3e
00000250: c1cf a33e a54b a2bd 94c5 873d e35a d0bd
00000260: 3473 993d ef80 e93d 0935 10bf 40aa 683e
00000270: e60d 883d a6d0 fbbe 0294 103d 3363 c63d
00000280: 6458 ed3d 5ef9 b43e e9b8 553e 918b 29bf
00000290: 926e 83bd 7898 993e 4775 8fbe 6107 da3e
000002a0: 0485 fe3d c85b fabd d382 bebd 3c96 1d3d
000002b0: 4ee6 5cbe 168e 523e 3b01 0b3e 28b4 043f
000002c0: bef1 063f 0ff9 45be 4bb9 03bf de48 f6bd
000002d0: e350 acbe 74b7 da3d a082 a73e 5032 13bf
000002e0: c0a6 03be 8b02 b43e f4b3 f4bd b4d7 0fbe
000002f0: 6383 ca3e 1fb1 f03e 6c9b 6abd 6e21 d4bd
00000300: 140f 29be 9f9a 3ebf d289 46bf 06c3 10bf
00000310: 63b4 b43e eef3 603e 9ee7 583e ab51 03be
00000320: 3faa 853e 6419 30be 8b9b 0b3e a783 66be
00000330: f05c a2be 6034 a6be ca14 8abe bef1 36bf
00000340: 8269 833d dacf 94be 04ce ea3d 22d2 e13e
00000350: 71e2 843c de2a 923e 2cb9 45bd fa6b a23e
00000360: 07d8 afbe 1dfc 1fbe 60e6 0fbe 8c33 8d3e
00000370: 1df9 1bbf ea0a c0be 33c6 c2bd edc5 fe3e
00000380: 3657 de3e 584d 4cbf 70aa 0cbf 31bf aa3e
00000390: 4dd3 c63d 77c0 f6be 5a77 a0be 04ff 3d3e
000003a0: 2d02 8ebe 3a0e 16bf 1016 e2be 41d0 9ebe
000003b0: e5b9 39be f645 993d 3b52 f53e dbde 06bf
000003c0: 80cc a7be ee8a d6be 7061 763e 6c9f b63e
000003d0: 01ee e33e ed87 243b 5acc 6bbe 1623 a3bd
000003e0: 6689 543e df9f f5be 6915 39be b24b bcbe
000003f0: 2ea4 2ebf 5871 39bd fe06 ccbe f202 16bf

fc2.weight f4 [256, 256]
-0.0014610379 -0.00049847737 0.006618184 -0.037957784 -0.06121803 -0.005487569 -0.034045402 -0.028520029
0.04306727 0.0071990876 0.025628448 -0.02400242 -0.052561972 0.006484842 -0.049555205 0.0049765175
-0.05540122 0.04464698 -0.050170906 0.051386967 0.04133531 0.035495486 0.03225502 0.011347546
-0.006000728 -0.0039764005 -0.031507786 -0.060882904 0.048719015 0.00024312947 0.027117109 -0.0066214665
0.011554092 -0.044428684 -0.05638326 0.043246057 0.020748505 0.024267895 -0.064969696 -0.003732425
-0.061195064 -0.014695207 -0.006196978 -0.04617145 -0.06502939 -0.003136661 0.04801146 0.053117927
-0.041203998 -0.014212783 -0.055660132 -0.056855265 -0.02010874 0.05865617 -0.022174854 -0.0029777298
0.050796103 0.008154965 0.04748057 0.038535804 0.052669045 0.007738863 -0.05837113 -0.05929169
-0.035225425 0.048711058 0.020983903 0.013565239 -0.05722792 -0.04893213 0.044461474 -0.009609783
-0.07148046 -0.0107325725 -0.017893495 -0.0019867385 0.018109318 0.022126867 -0.05361732 -0.007833603
-0.033818144 0.03298894 0.022820076 0.0284974 0.053752437 0.027822215 -0.06541506 0.0128055625
-0.045914143 0.002591856 -0.002258952 0.051095016 -0.04951068 -0.06422259 -0.025975484 0.0070778485
0.04368114 0.047887936 0.03953258 0.012021538 -0.020861238 -0.02017834 -0.03630153 0.0019657586
-0.046385944 0.018584367 0.03305329 0.04559233 -0.06781078 0.040222373 -0.04222789 -0.012615317
0.054205004 0.026554283 -0.02320313 0.029503662 -0.063655816 0.041193705 0.05772675 -0.010384779
0.007288375 -0.01858082 -0.044536773 -0.0282866 -0.007121541 -0.054110248 -0.059350863 0.0009046457
-0.043507155 -0.04119406 -0.0040962417 -0.03449403 0.054873712 -0.025557853 -0.047419176 -0.023580097
-0.0602028 0.0255886 0.046648648 -0.04611376 -0.025377225 0.05498816 -0.057419866 0.009390746
-0.053907137 -0.060521953 -0.007046553 -0.039076634 0.027503606 -0.027108029 -0.002341417 -0.035531726
0.022697955 0.051197533 -0.02065419 -0.047629517 -0.07138191 0.057041917 0.018928347 0.018461632
-0.00021838878 0.024429519 0.019565534 0.022553178 0.025499294 0.0016433493 0.04662444 0.031143112
-0.009761171 -0.031173147 -0.0024696628 0.04160323 0.032482732 -0.033620242 -0.020467421 0.019679332
0.01781065 0.05658636 0.027337408 0.016919801 0.005764556 -0.061731704 -0.02842546 7.9710364e-05
-0.05254937 -0.06105275 0.035509113 0.013472277 -0.058532596 -0.0023614413 0.028851824 0.030858507
0.054081112 -0.027629526 0.024923053 -0.053592395 -0.015256593 -0.052157417 -0.016206598 0.032630872
0.02819929 -0.041108496 -0.022116717 -0.018785486 -0.026689101 -0.037171517 0.04105088 0.04096014
0.04429599 -0.037312396 0.0315183 -0.027122105 -0.021995706 -0.023823341 -0.0060470267 -0.030344004
0.00114552 -0.049593795 0.018341774 -0.05847076 -0.025056126 -0.050175183 0.033558518 0.03810314
-0.053685136 -0.04051827 0.05293268 0.008617029 0.033643045 -0.0546278 0.019911302 0.032059632
-0.017499095 -0.011551407 0.05162749 0.014134205 0.005684821 -0.0059186355 -0.032146838 -0.04470604
0.058840185 -0.007785297 0.04464796 0.0482661 -0.035785433 -0.0029291632 -0.02394275 -0.0039129658
0.038300633 0.025196314 -0.038519412 -0.033846613 -0.053204145 -0.06111985 0.027602196 -0.04137719
00000000: 4c80 bfba 40ac 02ba 5add d83b 9f79 1bbd
00000010: c2bf 7abd 11d1 b3bb 3173 0bbd d6a2 e9bc
00000020: 4e67 303d 53e6 eb3b c0f2 d13c b9a0 c4bc
00000030: 394b 57bd cc7e d43b 66fa 4abd 0e12 a33b
00000040: 64ec 62bd c0df 363d 0280 4dbd 247b 523d
00000050: 374f 293d b763 113d d71d 043d 0feb 393c
00000060: c1a1 c4bb 774c 82bb 4f0e 01bd 5a60 79bd
00000070: 978d 473d 92f0 7e39 b324 de3c e3f8 d8bb
00000080: 604d 3d3c dafa 35bd 22f2 66bd c722 313d
00000090: c5f8 a93c 77cd c63c d50e 85bd b39b 74bb
000000a0: ada7 7abd 2ac4 70bc 0510 cbbb 461e 3dbd
000000b0: 212e 85bd 7090 4dbb aaa7 443d 2f92 593d
000000c0: 86c5 28bd bcdc 68bc e1fb 63bd 11e1 68bd
000000d0: 16bb a4bc 7441 703d 0aa8 b5bc 0426 43bb
000000e0: 930f 503d 679c 053c fc7a 423d b8d7 1d3d
000000f0: 7fbb 573d 4a96 fd3b 9116 6fbd d8db 72bd
00000100: 8948 10bd 3f85 473d 6fe6 ab3c bc40 5e3c
00000110: d367 6abd 0f6d 48bd 3c1d 363d 5a72 1dbc
00000120: 5964 92bd acd7 2fbc 6195 92bc f133 02bb
00000130: fe59 943c 6743 b53c d69d 5bbd 8358 00bc
00000140: e584 0abd 691f 073d 2bf1 ba3c 6173 e93c
00000150: 842b 5c3d 6aeb e33c 55f8 85bd 6cce 513c
00000160: 7810 3cbd 21dc 293b ed0a 14bb 0249 513d
00000170: b6cb 4abd 2287 83bd 8aca d4bc 4ced e73b
00000180: ffea 323d 2426 443d eaec 213d fcf5 443c
00000190: 30e5 aabc 0c4d a5bc eab0 14bd f5d3 003b
000001a0: 30ff 3dbd 3e3e 983c e362 073d 06bf 3a3d
000001b0: 61e0 8abd 37c0 243d 27f7 2cbd 79b0 4ebc
000001c0: 1106 5e3d 5e88 d93c 7e14 bebc aab1 f13c
000001d0: fb5d 82bd bbba 283d e272 6c3d ec24 2abc
000001e0: 52d3 ee3b ce36 98bc 316c 36bd 4db9 e7bc
000001f0: d15b e9bb b5a2 5dbd e419 73bd bf25 6d3a
00000200: 8f34 32bd 1abb 28bd c439 86bb 9d49 0dbd
00000210: 42c3 603d b45e d1bc 9c3a 42bd 0c2b c1bc
00000220: 3697 76bd 2f9f d13c a712 3f3d c8e1 3cbd
00000230: e6e3 cfbc 443b 613d 1831 6bbd a5db 193c
00000240: bbcd 5cbd dee5 77bd c5e6 e6bb d20e 20bd
00000250: 3e4f e13c a811 debc 7572 19bb b789 11bd
00000260: 10f1 b93c 81b4 513d fa32 a9bc 2b17 43bd
00000270: ae30 92bd c9a4 693d 9f0f 9b3c d93c 973c
00000280: 4bff 64b9 6a20 c83c e647 a03c 71c1 b83c
00000290: e5e3 d03c a765 d73a 45f9 3e3d d71f ff3c
000002a0: 52ed 1fbc d45e ffbc 11da 21bb 2668 2a3d
000002b0: 9d0c 053d 61b5 09bd 4bab a7bc 8d36 a13c
000002c0: a4e7 913c 19c7 673d b3f2 df3c 659b 8a3c
000002d0: 9ae4 bc3b 62da 7cbd 83dc e8bc 2d2a a738
000002e0: 023e 57bd 7312 7abd 0172 113d d3ba 5c3c
000002f0: e0bf 6fbd 69c2 1abb a95a ec3c fbca fc3c
00000300: 2884 5d3d 5157 e2bc 6e2b cc3c b383 5bbd
00000310: caf6 79bc 04a3 55bd b3c3 84bc f3a7 053d
00000320: 3302 e73c 6261 28bd 1e2e b5bc 05e4 99bc
00000330: 1aa3 dabc 2941 18bd f824 283d d2c5 273d
00000340: b66f 353d e2d4 18bd 5519 013d 2d2f debc
00000350: 5730 b4bc 2b29 c3bc 2326 c6bb fd93 f8bc
00000360: 4625 963a dd22 4bbd 7d41 963c 097f 6fbd
00000370: 8142 cdbc 7e84 4dbd a874 093d 0a12 1c3d
00000380: f2e4 5bbd 7cf6 25bd f0cf 583d 702e 0d3c
00000390: 4acd 093d 66c1 5fbd 071d a33c f650 033d
000003a0: 435a 8fbc 1d42 3dbc 5977 533d 2793 673c
000003b0: bc47 ba3b 1df1 c1bb 67ac 03bd ae1d 37bd
000003c0: 6802 713d ce1b ffbb c8e0 363d adb2 453d
000003d0: bf93 12bd 34f7 3fbb 9623 c4bc 5638 80bb
000003e0: 20e1 1c3d 8068 ce3c 88c6 1dbd bfa2 0abd
000003f0: 97ec 59bd cf58 7abd 001e e23c 217b 29bd

fc2.bias f4 [256]
0.003918995 -0.008946577 -0.056492086 0.03720744 -0.0028411571 -0.01895312 0.0121294465 0.021875532
0.016394231 -0.0361895 0.040498428 -0.0051566255 -0.015417042 -0.038554497 -0.048556667 -0.013886372
0.035896253 -0.059293624 -0.0022172881 0.03888773 0.0110755 -0.002126827 0.004513386 0.05899055
-0.071286805 0.020795476 -0.042822257 0.008583177 -0.01108987 0.10788709 -0.011614399 -0.019743511
0.002901189 0.063335635 0.027266243 0.09838119 -0.050510578 -0.0009942572 0.10167062 0.038554497
-0.0016601757 -0.057857797 0.09051661 0.0014739321 0.015016083 -0.005790983 0.022688592 0.010831128
0.0077130515 0.0145190945 0.0132225305 0.009533706 0.032693543 -0.027600769 0.0430908 0.078220084
-0.063550584 -0.028554132 0.02760272 0.025617901 -0.035402335 0.12549628 -0.00010071965 -0.050881684
0.0023254931 0.036521077 0.116637655 -0.011169276 0.060688753 -0.082144104 0.05244916 -0.0033688215
0.005606612 0.055359527 -0.03597264 -0.06513886 0.032468885 -0.02937721 -0.029221281 -0.07649529
-0.045166727 0.02631778 0.0030817837 0.0006301798 0.048203744 0.048157953 -0.050579835 -0.015925437
0.05046311 0.00715967 -0.029811084 0.06975329 0.010401837 0.013314124 -0.07390025 0.014102728
0.039844338 -0.06373695 -0.0030705042 0.059685495 -0.065289825 -0.017120374 0.016782705 0.03697631
0.015623912 0.00082708214 0.037641127 0.057400875 -0.064164005 -0.053514536 -0.056241695 -0.049575966
0.04542752 -0.079343736 0.011180907 0.02643464 0.06742291 -0.06541804 0.04140827 -0.0065356363
-0.043450426 0.078063995 0.037377015 0.01646733 0.11172169 -0.0068783164 -0.03980436 -0.023812868
0.002989796 -0.036051307 0.059161916 -0.07009971 0.09859536 -0.047865298 0.09122007 -0.038412903
-0.026767673 -0.004101534 0.025178641 0.026651263 -0.025667561 -0.0027271232 0.035545062 -0.07451923
-0.047736496 -0.060707044 -0.064903565 0.07567067 0.0032037655 -0.033333592 -0.011042455 0.05192273
0.06461875 -0.048409197 0.03420838 0.019357093 -0.03872128 -0.047348246 -0.08967793 0.0021674144
0.027872624 0.035418503 0.040434457 -0.036780126 0.027060093 -0.026369894 0.061843786 0.046119697
-0.017692376 -0.0039397697 0.0070462623 -0.048547156 -0.01437202 0.10049245 0.12335576 0.08049381
-0.024394503 0.031952843 0.012372408 0.039501354 0.015643382 0.063850984 -0.07741623 0.040489126
-0.0009913867 0.039883398 0.03272385 -0.05607077 -0.06484261 -0.022322724 0.03137789 0.0064054057
0.026666757 -0.0430631 -0.060505357 0.03063813 -0.059511565 0.059293438 -0.029135365 0.037061997
0.03064456 0.012029843 0.030294862 -0.080085985 0.05131149 -0.0033849215 -0.066957295 -0.03608701
0.030301647 -0.093202464 -0.029774731 -0.033401318 0.06481774 0.026303751 0.016533123 -0.015947139
0.011958221 -0.00027450602 -0.0126770735 0.05973593 0.112480134 0.09270195 -0.0058527947 -0.049447272
0.0009128056 -0.01936793 -0.028613685 -0.041545164 0.054379996 0.008773386 0.034638926 0.039450936
0.0068562264 -0.055175804 0.014815855 0.041657202 -0.024305873 0.010903821 -0.0077936044 0.00151008
0.049716193 0.01645775 0.06517722 -0.04193802 0.11388226 -0.028104255 0.03859614 0.06649528
-0.0073371516 -0.054103754 -0.05317698 -0.060157713 -0.036433384 0.056615498 0.016310634 0.0149500985
00000000: ea6a 803b aa94 12bc 3f64 67bd d466 183d
00000010: b532 3abb 9343 9bbc 96ba 463c 5134 b33c
00000020: 324d 863c 713b 14bd aee1 253d e9f8 a8bb
00000030: c397 7cbc 52eb 1dbd 5be3 46bd aa83 63bc
00000040: f307 133d dfdd 72bd ec4f 11bb be48 1f3d
00000050: 0476 353c 3c62 0bbb 07e5 933b 13a0 713d
00000060: d1fe 91bd 465b aa3c 6466 2fbd 74a0 0c3c
00000070: 49b2 35bc e8f3 dc3d 524a 3ebc 25bd a1bc
00000080: e021 3e3b 1db6 813d 755d df3c 147c c93d
00000090: 2ee4 4ebd bc51 82ba b038 d03d 52eb 1d3d
000000a0: 419a d9ba 4cfc 6cbd c660 b93d f430 c13a
000000b0: 0406 763c 49c2 bdbb 6ddd b93c 0b75 313c
000000c0: c4bd fc3b 7fe1 6d3c 50a3 583c 4333 1c3c
000000d0: aae9 053d 021b e2bc fb7f 303d da31 a03d
000000e0: cf26 82bd 5bea e9bc 191f e23c a2dc d13c
000000f0: 0a02 11bd 1982 003e 7339 d3b8 5069 50bd
00000100: 4d67 183b 2097 153d b9df ee3d 57ff 36bc
00000110: c594 783d 2b3b a8bd eed4 563d 72c7 5cbb
00000120: acb7 b73b acc0 623d 0c58 13bd 8667 85bd
00000130: 18fe 043d 7aa8 f0bc 7861 efbc 90a9 9cbd
00000140: bf00 39bd 6398 d73c c0f7 493b a732 253a
00000150: 4a71 453d 4641 453d cd2c 4fbd 1076 82bc
00000160: 68b2 4e3d aa9b ea3b 6036 f4bc d0da 8e3d
00000170: 776c 2a3c 7c23 5a3c 0459 97bd 210f 673c
00000180: d133 233d 8588 82bd 833a 49bb c778 743d
00000190: acb6 85bd 0740 8cbc e27b 893c 7974 173d
000001a0: 70fb 7f3c 8bd0 583a 952d 1a3d 2e1d 6b3d
000001b0: 6b68 83bd 0f32 5bbd b15d 66bd 2b10 4bbd
000001c0: 3512 3a3d f87e a2bd 1f30 373c 758d d83c
000001d0: 0615 8a3d e5f9 85bd b89b 293d e428 d6bb
000001e0: 13f9 31bd 04e0 9f3d a418 193d 7ee6 863c
000001f0: 57ce e43d 8063 e1bb e609 23bd 3413 c3bc
00000200: 74f0 433b 89aa 13bd c453 723d 7090 8fbd
00000210: 5dec c93d 670e 44bd 97d1 ba3d d956 1dbd
00000220: e147 dbbc 2966 86bb 7043 ce3c c053 da3c
00000230: c744 d2bc 89b9 32bb b397 113d 8a9d 98bd
00000240: 5887 43bd f3a7 78bd 29ec 84bd 39f9 9a3d
00000250: 44f6 513b ce88 08bd 6aeb 34bc eeac 543d
00000260: d656 843d b948 46bd 161e 0c3d c492 9e3c
00000270: 349a 1ebd 3cf0 41bd 10a9 b7bd 2e0b 0e3b
00000280: 2155 e43c fe12 113d 9a9e 253d c2a6 16bd
00000290: 21ad dd3c ad05 d8bc e94f 7d3d 02e8 3c3d
000002a0: 9aef 90bc 2f19 81bb 55e4 e63b 62d9 46bd
000002b0: 9f78 6bbc fcce cd3d f2a1 fc3d f0d9 a43d
000002c0: fbd6 c7bc fce0 023d a4b5 4a3c 2ccc 213d
000002d0: 8d26 803c 4ec4 823d 678c 9ebd edd7 253d
000002e0: 6bf1 81ba c65c 233d 7209 063d 77aa 65bd
000002f0: 34cc 84bd 25de b6bc 1a86 003d 70e4 d13b
00000300: 3e74 da3c ef62 30bd 77d4 77bd d1fc fa3c
00000310: 66c2 73bd addd 723d 4aad eebc 52ce 173d
00000320: 4d0a fb3c d218 453c ee2c f83c 1f04 a4bd
00000330: ff2b 523d 8fd5 5dbb e820 89bd f9cf 13bd
00000340: 293b f83c efe0 bebd 23ea f3bc d2cf 08bd
00000350: 2abf 843d f77a d73c 7970 873c 93a3 82bc
00000360: 6aec 433c 93eb 8fb9 80b3 4fbc aaad 743d
00000370: fc5b e63d 85da bd3d cdc8 bfbb 3989 4abd
00000380: 5949 6f3a 7ea9 9ebc 3f67 eabc 432b 2abd
00000390: 8fbd 5e3d 3fbe 0f3c 8ce1 0d3d 4e97 213d
000003a0: 32aa e03b 0600 62bd 33be 723c bea0 2a3d
000003b0: 1c1d c7bc f1a5 323c 7e61 ffbb e0ed c53a
000003c0: 35a3 4b3d 67d2 863c a27b 853d 34c7 2bbd
000003d0: 1a3b e93d e53a e6bc fc16 1e3d ad2e 883d
000003e0: 7d6c f0bb e69b 5dbd 1bd0 59bd ef67 76bd
000003f0: 2c3b 15bd a7e5 673d e19d 853c 42f1 743c

mu.weight f4 [1, 256]
0.03962283 -0.031568386 0.3119943 0.053845692 0.59418815 -0.010441118 -0.16478142 -0.049455293
0.044377867 0.39181602 0.52464604 -0.030034192 0.00032470888 0.0010946706 0.027436126 0.16227745
0.037790433 0.23701862 0.38630643 0.21440253 0.0014373151 -0.13098633 -0.047228407 -0.31626606
-0.20979543 0.027379952 0.018984577 0.049199667 0.04211451 0.06397701 0.033891443 -0.028177695
0.0818512 -0.009732303 -0.071547166 0.061527014 -0.007774389 -0.23729528 -0.071890846 -0.0394249
0.21551031 -0.4317917 -0.0640933 0.024810515 0.0149847455 0.011237451 0.07064524 -0.40420216
0.0806242 0.023975944 -0.06745517 -0.04741843 -0.009313134 -0.35982126 -0.09007958 0.054736577
0.019819498 0.00029678625 -0.08511909 0.19088244 -0.04564519 -0.31229275 -0.39340478 0.0049314653
-0.3371854 0.006382337 0.08370823 0.00087103376 0.2923635 0.03393499 -0.029535582 0.024489908
-0.15986389 -0.042720705 -0.04075416 -0.008101281 -0.00013150112 -0.28514102 0.011805054 0.0095611
-0.0057378546 0.027130084 -0.13122799 -0.04012111 -0.047883395 -0.11145543 -0.05415506 -0.0019707074
-0.02541079 0.1713082 0.10832053 -0.060214918 0.027278475 0.01516886 0.16497123 -0.013389005
-0.046264827 0.71555036 0.21725023 -0.015467977 0.015259466 -0.011192537 0.036239766 -0.0031684306
-0.051326998 0.27213937 0.21216813 0.07037912 -0.12140817 -0.0010804195 -0.004455346 -0.01139068
-0.32621786 0.1701828 -0.02522208 0.08504288 -0.0077204537 -0.032369696 0.051614694 0.008259453
0.5293586 -0.13163507 -0.22685947 0.0015571974 -0.108120896 -0.26149634 -0.060643904 -0.1622244
0.020361518 0.048608266 -0.011772841 -0.014946134 -0.0049128477 0.15796469 0.057634506 -0.23858091
-0.11659471 -0.042223517 -0.16571173 -0.008195362 0.048856404 -0.18429017 0.025628401 -0.50988823
0.027220344 0.006294399 0.028308496 -0.003052762 0.07414632 0.01218917 -0.09900972 0.076190315
0.054072283 0.0005624352 -0.041640025 -0.20016114 0.0060087186 -0.29393554 -0.21376003 0.16160654
-0.03156995 0.04040914 0.023807583 -0.031961255 -0.0018509477 -0.024257908 0.16745634 0.005049716
0.09674133 -0.07422947 0.024727933 0.025457928 0.049808938 -0.055427115 0.14872302 0.27658495
-0.054012433 0.0014355822 0.009182281 -0.18564542 -0.03854175 -0.0028403972 -0.021969164 0.06886142
0.27969226 0.011564021 -0.00016548297 -0.04312515 -0.013598128 0.26855677 0.00040413 -0.34187114
-0.00377841 0.009183617 0.007387818 0.007394729 -0.009450138 0.055568263 0.0049275164 0.012481675
-0.0025752028 0.14413343 0.025662988 -0.13062368 -0.016377762 -0.17536715 0.037780304 0.053905103
-0.010748147 -0.082974166 -0.023159655 -0.18791549 0.29057533 0.08436388 -0.020920321 0.00054706575
-0.27609506 -0.36117724 0.030252771 -0.13086003 0.3667366 -0.40442026 0.015108617 -0.003077686
-0.056810956 -0.118940376 0.039683383 -0.034049444 0.025662173 -0.040736392 0.056640796 0.11820159
0.26895413 -0.0047609583 0.009081982 0.006321483 -0.18058987 0.05906676 -0.0054580513 -0.033199485
-0.14963782 0.0082401065 -0.34399235 0.056555476 -0.021849202 0.5688832 0.00016794397 -0.22057734
-0.021795811 0.19284317 0.0058569987 -0.016410671 -0.17491521 -0.047525316 -0.049223498 0.055563383
00000000: 8c4b 223d da4d 01bd b8bd 9f3e 4d8d 5c3d
00000010: b71c 183f 3911 2bbc 76bc 28be a291 4abd
00000020: 91c5 353d 1c9c c83e 344f 063f 440a f6bc
00000030: b03d aa39 0d7b 8f3a bac1 e03c 0f2c 263e
00000040: 24ca 1a3d 02b5 723e f5c9 c53e 568c 5b3e
00000050: 4b64 bc3a 4821 06be 9372 41bd a0ed a1be
00000060: 9dd4 56be ec4b e03c 8b85 9b3c 9785 493d
00000070: 4480 2c3d 6106 833d c1d1 0a3d e9d4 e6bc
00000080: 9aa1 a73d 3d74 1fbc 5287 92bd c003 7c3d
00000090: 4dc0 febb 89fd 72be 823b 93bd 017c 21bd
000000a0: bcae 5c3e cd13 ddbe 5943 83bd 6c3f cb3c
000000b0: 9482 753c 491d 383c 74ae 903d 96f3 cebe
000000c0: 4d1e a53d 3369 c43c f025 8abd d439 42bd
000000d0: 1d96 18bc 7e3a b8be a57b b8bd 7633 603d
000000e0: 805c a23c fa99 9b39 eb52 aebd b076 433e
000000f0: 73f6 3abd d6e4 9fbe 5a6c c9be 2198 a13b
00000100: 91a3 acbe ec22 d13b 386f ab3d 1656 643a
00000110: abb0 953e 6bff 0a3d 9bf4 f1bc 0f9f c83c
00000120: 5cb3 23be e8fb 2ebd d6ed 26bd 3cbb 04bc
00000130: 90e3 09b9 01fe 91be fc69 413c 29a6 1c3c
00000140: 9d04 bcbb e93f de3c a160 06be 0856 24bd
00000150: 6121 44bd bf42 e4bd b2d1 5dbd fc26 01bb
00000160: 4a2a d0bc 6b6b 2f3e 27d7 dd3d eba3 76bd
00000170: 1c77 df3c cf86 783c 38ee 283e 8f5d 5bbc
00000180: 3080 3dbd 4f2e 373f d876 5e3e 666d 7dbc
00000190: d702 7a3c e760 37bc 2670 143d 72a5 4fbb
000001a0: 423c 52bd da55 8b3e 9a42 593e ee22 903d
000001b0: d9a4 f8bd dd9c 8dba 27fe 91bb fa9f 3abc
000001c0: 0706 a7be 6644 2e3e 899e cebc f62a ae3d
000001d0: dcfb fcbb 1696 04bd ee69 533d a852 073c
000001e0: 0c84 073f 58cb 06be d94d 68be e01a cc3a
000001f0: 7d6e ddbd d9e2 85be be65 78bd 271e 26be
00000200: 33cd a63c 7619 473d e0e2 40bc a1e0 74bc
00000210: f4fb a0bb 7fc1 213e 2912 6c3d 8e4e 74be
00000220: 35c9 eebd 91f2 2cbd 56b0 29be d745 06bc
00000230: a71d 483d 90b6 3cbe a7f2 d13c 0988 02bf
00000240: 33fd de3c 3f41 ce3b 38e7 e73c d910 48bb
00000250: 07da 973d 16b5 473c 9cc5 cabd ab09 9c3d
00000260: e67a 5d3d 6370 133a bb8e 2abd 0bf7 4cbe
00000270: c9e4 c43b b87e 96be e9e3 5abe 2f7c 253e
00000280: 7e4f 01bd 0e84 253d 1f08 c33c cee9 02bd
00000290: 809b f2ba 85b8 c6bc ad79 2b3e 1778 a53b
000002a0: 5220 c63d 9f05 98bd 3c92 ca3c 258d d03c
000002b0: 7504 4c3d 8b07 63bd d94a 183e 8b9c 8d3e
000002c0: 243c 5dbd 252a bc3a 4771 163c d519 3ebe
000002d0: f4dd 1dbd f525 3abb adf8 b3bc 3707 8d3d
000002e0: d333 8f3e 0577 3d3c 7f85 2db9 ffa3 30bd
000002f0: afca 5ebc 4680 893e 69e1 d339 bc09 afbe
00000300: 339f 77bb e276 163c 8215 f23b 7c4f f23b
00000310: c0d4 1abc 8c9b 633d 0177 a13b f07f 4c3c
00000320: bcc4 28bb b797 133e 303b d23c 37c2 05be
00000330: a82a 86bc 7293 33be 85bf 1a3d 99cb 5c3d
00000340: ff18 30bc 5cee a9bd 51b9 bdbc eb6c 40be
00000350: 4ac6 943e f8c6 ac3d 1861 abbc f668 0f3a
00000360: 555c 8dbe 39ec b8be a9d4 f73c 2c00 06be
00000370: e6c4 bb3e 2c10 cfbe 228a 773c 01b3 49bb
00000380: 9bb2 68bd 0397 f3bd 0b8b 223d 6e77 0bbd
00000390: 7a39 d23c 34db 26bd 2e00 683d ad13 f23d
000003a0: 5bb4 893e d001 9cbb 98cc 143c 7124 cf3b
000003b0: 8dec 38be fdef 713d 74d9 b2bb 2ffc 07bd
000003c0: a83a 19be 8301 073c c41f b0be b7a6 673d
000003d0: 19fd b2bc 54a2 113f 1e1a 3039 07df 61be
000003e0: 218d b2bc ae78 453e 11ec bf3b ac6f 86bc
000003f0: f91c 33be e8a9 42bd 949e 49bd 6e96 633d

log_std_linear.weight f4 [1, 256]
-0.00671669 -0.045506746 0.06762237 -0.020173313 0.06340536 0.029896129 0.0203154 0.00075503293
-0.09378453 0.04269962 0.06843405 0.044512115 0.0060146227 -0.001175308 0.08852616 -0.057206683
-0.052797113 0.13256371 0.052237038 0.0711576 0.012283573 -0.39103484 0.02334606 0.20148592
-0.045488708 0.05855809 -0.00041332335 0.009040444 -0.033482432 0.005789144 0.027900087 0.05224477
0.04822605 -0.027585857 0.030553395 -0.053801518 0.01637217 -0.078771785 0.046740428 -0.02060926
-0.035085183 -0.06951984 0.074906684 0.047472097 0.035406373 -0.05759158 -0.059985917 0.22021933
0.021553941 -0.0038546966 -0.02018137 0.033426028 -0.175593 0.075773515 0.14070822 0.23292632
-0.035427388 0.00024358704 0.08022432 -0.15906939 -0.10344742 0.044156235 0.066179715 0.044606853
0.31176656 0.010609191 -0.014579289 0.03980419 0.1272221 0.047974363 0.025840545 -0.0062531233
-0.04968584 0.007912767 -0.044636272 -0.00412053 0.009862408 0.18472107 0.052033707 0.017289823
0.025607614 0.035693817 -0.08263174 -0.052230466 -0.09057202 0.07633506 0.012240699 -0.015904088
-0.19948876 0.064330034 0.02185863 0.17852749 0.05784544 0.014759917 -0.0073143216 -0.06956675
-0.111754805 0.29469153 0.102338105 -0.10437905 -0.03837345 0.038187515 0.103714906 -0.003417087
-0.014378801 -0.12075648 -0.036191925 -0.07637363 -0.3331948 -0.031765476 -0.001842505 -0.02154166
-0.023312654 -0.032888096 -0.035562534 0.022508698 -0.29115912 -0.009166245 0.086430535 0.027407868
0.23796076 0.07228714 -0.071221516 0.14471692 0.12752001 0.05613473 -0.051937915 0.21411857
-0.03869343 -0.007558139 -0.12411012 -0.011008486 -0.15663132 -0.023707688 0.06678044 0.16837122
-0.122743376 0.16114374 -0.028880399 0.030305883 -0.039619327 -0.11365149 -0.1640684 0.21819039
-0.012398945 0.0111467065 -0.01352944 -0.16425037 -0.09007749 -0.024107276 0.047729623 -0.22806993
0.09088103 0.008269347 0.04436666 -0.1209362 0.037241105 0.0062085725 0.09161945 -0.104408756
0.00460904 -0.004220999 -0.007269108 0.03707138 -0.011909441 0.020529421 -0.012614134 -0.028035142
0.018773548 0.017525738 0.028699033 -0.03671058 -0.045710687 -0.1539656 0.0010220159 0.11542532
0.03132237 0.0021069949 0.02715789 0.19336738 0.011406427 -0.08839889 0.018001799 0.016682534
-0.11581826 -0.3027591 -0.006441447 -0.054465834 -0.042806197 0.021118162 0.019122891 0.21026343
0.005791211 0.04305383 0.04143671 -0.020049227 0.011331775 0.04061242 0.034839988 -0.020808302
0.043091655 0.0134356795 -0.044921268 -0.10042607 0.025886983 -0.19126232 0.029093271 0.11494746
0.01385146 -0.03328702 0.007860207 -0.015999677 0.12245248 0.09952731 -0.010847939 -0.0043383376
0.02645959 0.21033238 0.059525147 -0.0946636 0.01778899 0.04702189 -0.10602313 0.027352072
-0.0076406677 0.01627588 0.029363744 -0.010622918 -0.017062519 -0.0064192866 0.046789397 -0.24263543
0.19533913 -0.011986777 0.030069994 -0.06691424 0.39814496 -0.022624433 0.02370146 -0.09059782
-0.013748285 -0.0062910784 0.017630544 -0.042143706 -0.01201775 0.21125442 -0.0145808775 0.22845626
-0.017001122 0.092308596 0.016754804 -0.01387815 -0.06350419 0.060567215 0.0018339254 0.008830491
00000000: ae17 dcbb 4865 3abd 997d 8a3d 8142 a5bc
00000010: abda 813d bae8 f43c 7b6c a63c 67ed 453a
00000020: 1b12 c0bd cce5 2e3d 2727 8c3d 5652 363d
00000030: 5016 c53b cb0c 9aba 344d b53d 8e51 6abd
00000040: c941 58bd c8be 073e 81f6 553d 13bb 913d
00000050: 0a41 493c b835 c8be 3d40 bf3c 5352 4e3e
00000060: 5e52 3abd 9cda 6f3d 52b3 d8b9 5f1e 143c
00000070: e024 09bd dcb2 bd3b b98e e43c 9dfe 553d
00000080: ae88 453d bcfb e1bc 1d4b fa3c fb5e 5cbd
00000090: ee1e 863c 1a53 a1bd e472 3f3d c0d4 a8bc
000000a0: 7bb5 0fbd 6b60 8ebd ad68 993d 1a72 423d
000000b0: 4606 113d 26e5 6bbd cbb3 75bd 2d81 613e
000000c0: e491 b03c 149f 7cbb 6753 a5bc bbe9 083d
000000d0: a7ce 33be 252f 9b3d d115 103e 3d84 6e3e
000000e0: 4f1c 11bd 666b 7f39 a64c a43d 16e3 22be
000000f0: 3edc d3bd 2bdd 343d 3b89 873d adb5 363d
00000100: de9f 9f3e 2cd2 2d3c f8dd 6ebc b809 233d
00000110: 8346 023e c480 443d 8daf d33c 00e7 ccbb
00000120: 6183 4bbd 8da4 013c 86d4 36bd 8305 87bb
00000130: f095 213c 8527 3d3e 4c21 553d 63a3 8d3c
00000140: 0fc7 d13c ae33 123d d43a a9bd 9def 55bd
00000150: d37d b9bd 8e55 9c3d 368d 483c 4a49 82bc
00000160: c846 4cbe 77bf 833d df10 b33c e9cf 363e
00000170: 57ef 6c3d 94d3 713c faac efbb 0379 8ebd
00000180: b4df e4bd cfe1 963e a496 d13d afc4 d5bd
00000190: 7b2d 1dbd 836a 1c3d 7b68 d43d 35f1 5fbb
000001a0: 1095 6bbc 2c4f f7bd fc3d 14bd c769 9cbd
000001b0: 8298 aabe 841c 02bd 3580 f1ba 2378 b0bc
000001c0: 2efa bebc abb5 06bd 05aa 11bd 2964 b83c
000001d0: cf12 95be 052e 16bc 7e02 b13d 7786 e03c
000001e0: fcab 733e 480b 943d 96dc 91bd ac30 143e
000001f0: 9b94 023e 88ed 653d dabc 54bd e641 5b3e
00000200: 017d 1ebd 44aa f7bb 722d febd f05c 34bc
00000210: f663 20be a036 c2bc 2fc4 883d 8169 2c3e
00000220: e160 fbbd dd02 253e 9696 ecbc 0b44 f83c
00000230: e047 22bd 1dc2 e8bd 8c01 28be 4d6d 5f3e
00000240: f224 4bbc ada0 363c 96aa 5dbc 4031 28be
00000250: 8c7a b8bd 9f7c c5bc 2380 433d 2a8b 69be
00000260: d51f ba3d 287c 073c d1b9 353d 66ad f7bd
00000270: 218a 183d 4871 cb3b faa2 bb3d 42d4 d5bd
00000280: 6e07 973b 4e50 8abb b331 eebb 29d8 173d
00000290: d11f 43bc 512d a83c 83ab 4ebc f4a9 e5bc
000002a0: fcca 993c 2392 8f3c 3c1a eb3c d55d 16bd
000002b0: 213b 3bbd 29a9 1dbe 2af5 853a 1c64 ec3d
000002c0: e34b 003d 8215 0a3b 397a de3c 1902 463e
000002d0: 06e2 3a3c 7a0a b5bd 8278 933c cfa9 883c
000002e0: 2032 edbd 3e03 9bbe c612 d3bb 9117 5fbd
000002f0: 8d55 2fbd ffff ac3c 9ca7 9c3c 4c4f 573e
00000300: 33c4 bd3b 3659 303d 8ab9 293d 473e a4bc
00000310: e9a8 393c 3559 263d 60b4 0e3d 2c76 aabc
00000320: e080 303d 5321 5c3c 5dff 37bd 2fac cdbd
00000330: f010 d43c 45da 43be 0355 ee3c 9369 eb3d
00000340: 3cf1 623c f857 08bd 19c8 003c c111 83bc
00000350: 5ec8 fa3d f9d4 cb3d 8ebb 31bc 9d28 8ebb
00000360: c8c1 d83c 5f61 573e a4d0 733d fdde c1bd
00000370: 37ba 913c 069a 403d a822 d9bd 7411 e03c
00000380: 915e fabb ff54 853c 3c8c f03c bf0b 2ebc
00000390: b2c6 8bbc e158 d2bb 3da6 3f3d 6c75 78be
000003a0: fb06 483e 3064 44bc 5955 f63c 550a 89bd
000003b0: a8d9 cb3e e056 b9bc 9029 c23c 5a8b b9bd
000003c0: 7d40 61bc 6425 cebb ee6d 903c e19e 2cbd
000003d0: 19e6 44bc 1453 583e a2e4 6ebc 70f0 693e
000003e0: f045 8bbc 4a0c bd3d 5f41 893c 2e61 63bc
000003f0: 7c0e 82bd 5415 783d 5360 f03a c4ad 103c
